generated_models/vdsr_distilled_4.onnx (onnx, 995676 bytes, 20 tensors)

conv1.0.weight f4 [39, 1, 3, 3]
0.0100629795 0.022125069 -5.787961e-05 -0.020791013 -0.026500223 -0.021225711 -0.016434839 -0.015904225
-0.013620054 -0.017895311 -0.1587173 -0.06256792 -0.039268654 0.9400321 -0.037593566 -0.036712088
-0.06330334 -0.039185885 -0.005480504 -0.11975883 0.01902152 0.09683183 -0.14415866 -0.026130151
0.077463895 -0.094554946 -0.10148386 -0.00025728124 -0.0010186152 -0.0013892187 0.0011925853 -6.1085746e-05
-0.00079890643 0.0011579769 0.00047037084 -8.8505934e-05 0.04072881 0.00456781 -0.048383974 -0.10671022
0.5227481 0.09306243 -0.018318543 -0.030152641 -0.051467642 0.004359658 -0.027095996 0.004576622
-0.02473062 0.13763125 -0.03086703 -0.0007114411 0.019340232 -0.011151383 -0.0228469 0.024722245
-0.057738774 0.038500085 0.43611827 0.06424307 -0.041633487 -0.0700249 -0.031192143 -0.07593204
-0.069556504 0.054287795 0.0038524296 0.70628 -0.14974445 0.04455472 -0.077972524 -0.10036116
-0.11700955 -0.17173505 -0.18605375 0.04888859 -0.031100225 -0.050407052 0.115746096 0.09564391
0.014370971 0.0890719 0.0731384 0.0626619 0.032766633 -0.097460575 -0.064558685 -0.06887644
-0.16491446 -0.19165333 -0.008487028 -0.0026449396 0.0004281408 -0.0053238897 -0.00844984 -0.0067403265
0.006103462 0.0064222333 -0.00020499625 -0.0007281986 -0.0003221055 -7.354275e-05 -0.0005223256 7.911644e-05
0.00054307183 -0.00044179548 -8.062144e-05 0.000243345 -0.0008757738 -0.06742735 0.01693291 0.079585925
-0.09575009 -0.020333078 0.041166022 -0.08198198 -0.07579197 -0.015022554 -0.026866946 -0.0031818412
-0.033583514 0.40947747 -0.062233303 0.0124243405 -0.055599336 -0.026320465 0.07541288 -0.0066918572
0.08915966 -0.08101315 -0.27048194 0.029281916 -0.16427943 -0.09659577 0.084853455 0.0073062605
0.012195431 -0.006905629 -0.005651347 0.1087527 0.008868088 -0.004928364 -0.018142216 -0.021575712
0.00068159145 -0.00093821646 -0.0017641509 0.0021337802 -0.0001182604 -0.0011959627 0.0012646742 -7.717452e-05
-0.00082793983 -0.09324526 -0.12105941 0.024765162 0.04099352 0.7235188 -0.14255488 0.012234444
-0.033502035 -0.0683626 0.057037946 -0.10135671 -0.05216088 0.0039256047 0.029078538 -0.11925464
-0.107409105 0.29242602 0.0651205 -0.000972785 -0.0010187704 0.00024599594 -0.0008908489 -0.0014268789
0.0016559495 -0.0003193897 -0.0016926653 6.148154e-06 -0.036582816 0.036379077 0.08298461 -0.086334
-0.04960618 0.037356153 -0.12846331 -0.082728975 -0.03104252 0.057289787 -0.19522627 0.018447144
0.047749534 -0.34298262 0.37942454 -0.10701244 -0.31442806 0.09041632 -0.029835733 -0.051192142
0.017545825 -0.009366462 0.28653535 0.00028293882 0.018147271 -0.053596757 -0.03671106 0.060914457
0.097114034 -0.07854627 -0.043438945 0.45997605 -0.017510379 -0.053900026 -0.05802706 -0.023645692
-0.0022582072 -0.029116271 -0.033052914 0.026603151 -0.016853472 -0.030427378 0.045463555 0.022133103
-0.022953467 0.032575317 0.021412222 0.00041699957 0.0048259567 -0.009721919 -0.009095605 -0.011592164
-0.011814938 -0.0089890435 -0.09562026 -0.109797776 -0.12206994 -0.01944846 -0.0036449695 -0.013918709
0.04699661 0.08460312 0.049325015 0.0016096807 -0.0013363573 -0.00084964896 -0.0019598936 0.014257667
0.0032777207 0.00030346008 -0.004263817 -0.003761732 -0.00029735366 -0.00044730937 -0.00045784866 0.00051102287
00000000: 32df 243c a23f b53c c2c3 72b8 ea51 aabc
00000010: ff16 d9bc 8be1 adbc 5ba2 86bc 9449 82bc
00000020: a626 5fbc 3099 92bc ca86 22be 9c23 80bd
00000030: 2bd8 20bd f2a5 703f b6fb 19bd 6a5f 16bd
00000040: 2ea5 81bd 6181 20bd cd95 b3bb 1e44 f5bd
00000050: 05d3 9b3c c44f c63d 549e 13be e60e d6bc
00000060: 64a5 9e3d 06a6 c1bd c5d6 cfbd b4e3 86b9
00000070: 0e83 85ba 7216 b6ba 8650 9c3a 291b 80b8
00000080: b46d 51ba 42c7 973a 1b9c f639 439c b9b8
00000090: 41d3 263d 91ad 953b 462e 46bd e38a dabd
000000a0: d2d2 053f 8497 be3d c510 96bc ac02 f7bc
000000b0: bccf 52bd 76db 8e3b 6cf8 ddbc 7df7 953b
000000c0: df97 cabc 35ef 0c3e dbdc fcbc 0180 3aba
000000d0: 686f 9e3c 4ab4 36bc 6c29 bbbc 4e86 ca3c
000000e0: 7e7f 6cbd 44b2 1d3d e54a df3e df91 833d
000000f0: e087 2abd 3769 8fbd aa86 ffbc 4282 9bbd
00000100: a473 8ebd e15c 5e3d 0b79 7c3b c4ce 343f
00000110: 9c56 19be 037f 363d 0fb0 9fbd 278a cdbd
00000120: b4a2 efbd 50db 2fbe e084 3ebe 673f 483d
00000130: e6c5 febc a077 4ebd 4a0c ed3d f4e0 c33d
00000140: 3974 6b3c 546b b63d 96c9 953d e254 803d
00000150: 4e36 063d 6999 c7bd 5837 84bd 170f 8dbd
00000160: 56df 28be c540 44be 2d0d 0bbc b956 2dbb
00000170: 1678 e039 0674 aebb 3371 0abc f5dd dcbb
00000180: 8dff c73b 9971 d23b 43f4 56b9 95e4 3eba
00000190: 45e0 a8b9 f73a 9ab8 adec 08ba 51eb a538
000001a0: ef5c 0e3a c9a0 e7b9 4e13 a9b8 6d2a 7f39
000001b0: 2f94 65ba 5a17 8abd e3b6 8a3c f2fd a23d
000001c0: a018 c4bd 8e91 a6bc b49d 283d 2be6 a7bd
000001d0: d238 9bbd 2921 76bc 1218 dcbc 7086 50bb
000001e0: de8e 09bd 08a7 d13e 59e8 7ebd 768f 4b3c
000001f0: 21bc 63bd 049e d7bc 1172 9a3d 5e47 dbbb
00000200: 5799 b63d 39ea a5bd 9c7c 8abe a1e0 ef3c
00000210: de38 28be 01d4 c5bd a6c7 ad3d 5b69 ef3b
00000220: 58cf 473c 9d48 e2bb ef2e b9bb bcb9 de3d
00000230: 754b 113c 1d7e a1bb fc9e 94bc 8cbf b0bc
00000240: d4ac 323a a4f2 75ba 153b e7ba e4d6 0b3b
00000250: 9202 f8b8 d9c1 9cba 6dc3 a53a c1d8 a1b8
00000260: 1a0a 59ba 5ff7 bebd ffed f7bd 4fe0 ca3c
00000270: d2e8 273d 8738 393f e8f9 11be fa72 483c
00000280: 6e39 09bd b101 8cbd 9fa0 693d 1b94 cfbd
00000290: a6a6 55bd 5ca2 803b 1d36 ee3c c73b f4bd
000002a0: 4ef9 dbbd ddb8 953e e65d 853d 7f02 7fba
000002b0: 4388 85ba 04f9 8039 dc87 69ba 1c06 bbba
000002c0: 720c d93a c373 a7b9 6cdc ddba 3e4c ce36
000002d0: ddd7 15bd 3a02 153d d6f3 a93d e1cf b0bd
000002e0: da2f 4bbd c402 193d e38b 03be cf6d a9bd
000002f0: e24c febc b2a8 6a3d 65e9 47be 771e 973c
00000300: 0495 433d 6b9b afbe ef43 c23e 5729 dbbd
00000310: b7fc a0be 312c b93d 116a f4bc daae 51bd
00000320: 43bc 8f3c ca75 19bc c3b4 923e 6857 9439
00000330: 96a9 943c 4688 5bbd 565e 16bd 7081 793d
00000340: b9e3 c63d dedc a0bd 09ed 31bd fb81 eb3e
00000350: ed71 8fbc 46c6 5cbd c8ad 6dbd 9cb4 c1bc
00000360: 6efe 13bb 3f85 eebc 7e62 07bd daee d93c
00000370: 4b10 8abc d642 f9bc fe37 3a3d 7b50 b53c
00000380: e908 bcbc b26d 053d af68 af3c bca0 da39
00000390: 0f23 9e3b af48 1fbc bc05 15bc 0fed 3dbc
000003a0: 7193 41bc c846 13bc 8ed4 c3bd a8dd e0bd
000003b0: ceff f9bd 6052 9fbc 71e0 6ebb 4c0b 64bc
000003c0: 847f 403d 6744 ad3d 0709 4a3d ecfb d23a
000003d0: b628 afba faba 5eba 8f71 00bb fd98 693c
000003e0: 07cf 563b b919 9f39 7db7 8bbb 6487 76bb
000003f0: 22e6 9bb9 d984 eab9 680b f0b9 2af6 053a

trunk.0.conv.weight f4 [39, 39, 3, 3]
-0.00042654516 0.00059279945 0.0009440241 -0.00047480452 -2.4088642e-06 0.00019414233 -2.788379e-06 -0.0009119991
-0.0004342015 -0.020089047 -0.009565351 0.004906103 -0.00380733 -0.03612422 0.0017980025 0.0058270376
-0.0037495433 0.016992174 0.011524851 0.00028762335 -0.003287583 0.010190582 0.0024950842 -0.004730022
0.0057102884 0.0025781922 -0.0009922785 2.2999555e-05 -4.91586e-05 5.8590003e-06 2.3944624e-05 -2.8971439e-05
-2.0335823e-05 1.0957772e-05 1.6135491e-05 -7.749853e-05 -0.01650475 -0.0015221809 0.010872194 -0.014545587
-0.021545218 0.009371897 -0.0056367028 -0.004651667 0.015043376 -0.0029888493 -0.002133851 7.780303e-05
-2.5878453e-05 -0.005429837 0.000706013 0.00037499136 -0.00089319266 0.0023352616 -0.00759773 -0.0026351917
0.008480546 -0.00541425 -0.018919157 0.0012447744 0.0032137712 -0.0037989833 0.011254991 0.00037502966
-0.003998364 0.00062460836 0.008307323 -0.025968501 -0.0035357291 0.008430878 -0.0076058484 0.0110185845
-0.00029729636 -0.0002161469 0.00020938509 0.0004825949 -0.0001281855 -0.000853277 0.0023067223 0.00096847035
-0.00035579284 0.0028864315 0.0013539069 -0.0004108841 0.0015998351 0.0006288594 -0.00073043606 0.00037312025
-0.00081534934 -0.0013064368 -4.9840957e-05 -0.00028361668 -0.00029979562 -5.304613e-05 0.0002209909 0.00012508399
-0.000494732 -5.5138644e-05 0.00039629897 -3.0782197e-05 -4.0755593e-05 1.6681024e-05 -4.8656024e-05 -2.6741576e-05
-2.3187507e-05 -1.3963792e-05 -9.118029e-06 0.0001140652 0.0042614467 -0.0003225627 -0.0018856132 0.0040800157
0.00049269473 -0.003930595 0.0018184377 0.00091596093 -0.00050424616 -0.0043561542 -0.00092764397 0.0017170908
0.001240304 -0.0144795 0.00052212225 0.0027397505 -0.0046177036 0.0055685923 -0.015234924 0.00127855
0.013510128 -0.013708504 0.00418775 0.0064604604 -0.0075772787 0.00029313352 -0.001041558 -0.00022318667
0.000408694 0.002395651 -0.00042511144 -0.004342234 0.00057875563 0.00078821176 -0.001735695 0.0020595782
9.154504e-05 9.983258e-05 3.097864e-06 1.181372e-05 9.6824715e-06 -1.8272562e-05 5.5312936e-05 -3.9236706e-06
3.2406795e-05 -0.005536712 -0.009912349 -0.0010444405 0.0071014524 -0.02844296 -0.004805538 0.0102445
-0.0041402862 0.012714507 -0.007596423 -0.018319787 -0.0030883923 0.0034913842 -0.012013324 -0.0030866903
0.013370946 0.0039181015 0.0019787564 -4.3016622e-05 9.0646005e-05 -3.2631466e-05 -0.000121419704 4.418576e-05
-2.4411785e-05 -0.00010797021 8.605327e-05 2.8860388e-05 -0.0013457258 0.0015191878 0.0026083435 -0.0012001803
0.0003760452 0.0014108543 -0.00092261453 -0.0005874356 0.00033554796 -0.021844177 2.1167176e-05 0.012215223
-0.028335242 -0.00014793448 0.0093260305 -0.019321175 0.0013022565 0.002104458 -0.0040028705 -0.00037009607
0.0021035138 -0.002085854 -0.009847101 0.0010176006 -0.0009876646 -0.0013606688 0.006969081 -0.0045559155
0.001463164 0.009443053 -0.0007408978 -0.018840909 0.0023993643 0.0059895925 -0.009315107 0.0042271055
3.915926e-05 -0.0005691066 -0.00037738003 0.0007225373 0.00047216364 0.00021989539 0.00039937304 4.2283897e-05
6.6554596e-05 2.8365279e-05 0.00017107023 0.000765008 0.00019601623 0.0002347699 -5.884059e-05 0.0009130117
4.7211863e-05 -0.00057747564 -0.0006566612 0.00023702308 0.00040628406 -0.00037743888 1.1420091e-06 -0.0008524905
0.0010858113 0.0007206163 -8.204177e-05 -2.5029016e-05 0.000120598444 0.00025182407 -4.549736e-06 -0.0005219481
9.423028e-05 9.858289e-05 -8.818242e-05 0.00023563093 7.4474883e-06 -2.9954019e-05 6.651859e-05 5.2739357e-05
00000000: eca1 dfb9 1966 1b3a 6378 773a 2fef f8b9
00000010: f9a7 21b6 af92 4b39 fd1f 3bb6 3913 6fba
00000020: 8aa5 e3b9 c991 a4bc fdb7 1cbc 60c3 a03b
00000030: 6684 79bb fdf6 13bd f4aa eb3a bcf0 be3b
00000040: e6ba 75bb 2c33 8b3c bbd2 3c3c 27cc 9639
00000050: 7d74 57bb 66f6 263c 9184 233b 4dfe 9abb
00000060: 5f1d bb3b e3f6 283b 570f 82ba 2bef c037
00000070: a52f 4eb8 6e98 c436 b0dc c837 b107 f3b7
00000080: d996 aab7 46d7 3737 b45a 8737 b586 a2b8
00000090: f834 87bc ea83 c7ba 4921 323c 9d50 6ebc
000000a0: 997f b0bc 968c 193c 17b4 b8bb 036d 98bb
000000b0: 7e78 763c 92e0 43bb 14d8 0bbb 2f2a a338
000000c0: 8e15 d9b7 c6ec b1bb bb13 393a 7d9a c439
000000d0: 2525 6aba 300b 193b 61f6 f8bb 2eb3 2cbb
000000e0: fdf1 0a3c 056a b1bb 59fc 9abc b327 a33a
000000f0: 229e 523b 5df8 78bb db66 383c a19f c439
00000100: b504 83bb c2bc 233a 701b 083c e5bb d4bc
00000110: b1b7 67bb aa21 0a3c 7b3a f9bb 4b87 343c
00000120: 71de 9bb9 7ea5 62b9 628e 5b39 cb04 fd39
00000130: 8869 06b9 73ae 5fba 612c 173b f2e0 7d3a
00000140: b589 bab9 492a 3d3b 9475 b13a ee6b d7b9
00000150: 8fb1 d13a 0ada 243a bc7a 3fba 5a9f c339
00000160: 2bbd 55ba bf3c abba 520c 51b8 63b2 94b9
00000170: e32d 9db9 d97d 5eb8 cbb9 6739 fa28 0339
00000180: e7b0 01ba ab44 67b8 59c6 cf39 221c 01b8
00000190: fcf0 2ab8 3aee 8b37 0214 4cb8 1953 e0b7
000001a0: cb82 c2b7 0846 6ab7 a3f9 18b7 4a36 ef38
000001b0: 9ba3 8b3b a21d a9b9 ae26 f7ba a7b1 853b
000001c0: 2f28 013a 38cc 80bb a558 ee3a 191d 703a
000001d0: 632f 04ba 12be 8ebb 222d 73ba 0210 e13a
000001e0: b291 a23a 6d3b 6dbc 08df 083a 638d 333b
000001f0: 1b50 97bb bd78 b63b e79b 79bc 0595 a73a
00000200: 9559 5d3c a299 60bc 6539 893b 45b2 d33b
00000210: d24a f8bb b7af 9939 e384 88ba 3707 6ab9
00000220: fb45 d639 5b00 1d3b 7ee1 deb9 4d49 8ebb
00000230: a2b7 173a ff9f 4e3a 4380 e3ba fdf9 063b
00000240: defb bf38 355d d138 e6e4 4f36 8b33 4637
00000250: e671 2237 0748 99b7 d0ff 6738 13a8 83b6
00000260: 88ec 0738 4e6d b5bb 6867 22bc 9ce5 88ba
00000270: 4db3 e83b 3601 e9bc c677 9dbb 8cd8 273c
00000280: 3dab 87bb 8250 503c 6aeb f8bb 6113 96bc
00000290: a066 4abb b5cf 643b 88d3 44bc 124a 4abb
000002a0: d011 5b3c 6b63 803b 06ae 013b bf6c 34b8
000002b0: 3419 be38 c5dd 08b8 b5a2 feb8 1954 3938
000002c0: e9c7 ccb7 116e e2b8 7f77 b438 3619 f237
000002d0: 1163 b0ba 7c1f c73a bef0 2a3b 5e4f 9dba
000002e0: ef27 c539 6aec b83a 9ddb 71ba 23fe 19ba
000002f0: 7cec af39 8ff2 b2bc 2a90 b137 5c22 483c
00000300: 4f1f e8bc dc1e 1bb9 35cc 183c 7147 9ebc
00000310: 7ab0 aa3a f2ea 093b 832a 83bb 7409 c2b9
00000320: 1bdb 093b d3b2 08bb bc55 21bc 0361 853a
00000330: 8674 81ba 7858 b2ba e35c e43b ca49 95bb
00000340: a3c7 bf3a 09b7 1a3c cf38 42ba 4058 9abc
00000350: a73e 1d3b 5844 c43b 649e 18bc 8883 8a3b
00000360: ef3e 2438 1930 15ba 17db c5b9 a868 3d3a
00000370: bb8c f739 b893 6639 f162 d139 fd59 3138
00000380: 3a93 8b38 f9f1 ed37 5161 3339 d18a 483a
00000390: b589 4d39 912c 7639 9acb 76b8 2e57 6f3a
000003a0: 5a05 4638 bc61 17ba ca23 2cba 6689 7839
000003b0: 8602 d539 fde2 c5b9 2247 9935 ab79 5fba
000003c0: c851 8e3a bee7 3c3a d70d acb8 67f5 d1b7
000003d0: cce9 fc38 4107 8439 efa9 98b6 58d3 08ba
000003e0: 7f9d c538 49be ce38 94ee b8b8 b213 7739
000003f0: 70e5 f936 c445 fbb7 e57f 8b38 7434 5d38

trunk.1.conv.weight f4 [39, 39, 3, 3]
-0.005423393 0.0010166783 0.0005649385 -0.004353602 0.0018414085 0.0011991205 -0.003687498 8.435319e-05
0.0022620277 -0.0029028633 -0.0042694416 -0.0008753302 -0.0005918409 0.0014651897 -0.002086777 0.0047738585
-0.0015848831 -0.0055785878 -0.006898857 -0.0009797254 0.0054306826 -0.0068836156 0.0036038538 -0.0003184818
-0.011042073 -0.016368976 -0.013123587 0.00080767635 -0.0010402367 0.0015069271 -0.0006138119 -0.0031817008
0.00059283193 -0.0010715696 -8.481105e-05 0.00032327045 0.0009260133 -0.0007060958 0.0012209454 0.0007268888
-0.0030313265 0.0002505964 -0.00040567407 -0.0010122793 -0.00075010135 0.0002954056 0.00013312667 -4.2725012e-05
0.00021094711 0.00026775687 -6.8026464e-05 -0.0002698144 -0.00018175915 -0.000191052 0.0011724912 -0.0008819648
0.0011330226 0.0004552129 -0.0019913143 0.00014375213 -0.00036506215 -0.00060538645 -0.0010314379 -0.005852854
0.0019467223 0.008507836 -0.0029515668 0.0013816366 0.0027016106 -0.007906279 -0.011800719 -0.006380526
0.0002640881 -0.002079617 0.0130577525 -0.00669777 -0.018605083 0.0060384637 -0.009753663 -0.002924996
0.00010603741 -0.00066592987 -0.00027846152 0.00012919623 -0.00076493784 0.0001981036 0.0002589851 -0.00044949297
0.00015102245 0.0005551986 -0.004908019 0.0027756293 0.0033729544 -0.005733088 0.0025544069 0.0007772258
-0.0051525515 -0.0008270946 -0.0016373242 0.002708329 -0.0037830072 0.005388609 0.00048228013 -0.008530255
0.00039794014 -0.00175545 -0.009593525 -0.0072228117 0.011688735 0.001557943 -0.0003982421 -0.00073220645
0.0064018588 -0.0016636637 -0.004783456 -0.0055570477 -0.0120955035 0.0057501867 -0.0040069697 0.0068161995
-0.00077743904 -0.01484353 0.0045138677 -0.0066041527 -0.0035637938 -0.0029551082 -0.000477157 0.0007228436
7.5958844e-05 2.3307879e-05 0.0006659289 -0.00043360653 8.008832e-05 0.00043717597 0.00030044487 -0.0043087346
0.0013656601 0.007217995 -0.0067486702 0.0011849434 0.00087247236 -0.003321481 -0.005900586 -0.001856423
0.008159098 -0.016620617 0.0110295 -0.0009971707 -0.029597402 0.0021434852 -0.0046383305 -0.0050716726
-0.010681059 0.0011823708 -0.0013228792 0.0007723269 -0.0003539858 -0.0019921 5.1526655e-05 -0.0004370941
0.00023042008 0.00033736767 -2.322878e-05 0.002009753 0.00023947116 0.003180188 0.0008754611 -0.0022066303
0.0018925113 -0.00087898946 2.2961938e-05 -0.004912792 -0.003524613 0.0017805783 -0.0073703593 0.0028757316
0.00339626 -0.0019574168 0.002614404 0.0031822843 -0.0010037911 -0.00043569025 -0.0011844732 0.00068953796
0.0004389008 -0.0013487136 0.0012550692 -5.644509e-05 -0.0025461735 -0.0058069793 0.00074899953 -0.0035583414
0.004243834 0.0053140847 -0.00526842 0.016381592 0.004711235 -0.0038832868 0.01566254 -0.0077148504
0.006596915 0.0060789925 -0.029587664 0.0040596547 -0.006219753 8.561767e-05 0.004931471 3.6385343e-05
-0.0009641679 0.00034838892 -0.0011397125 5.465368e-05 0.001034731 -0.00059585785 0.0010122504 0.0007326215
0.0029930978 -0.007837401 0.006540692 -0.005030078 -0.0124813635 0.0021077658 -0.003657517 7.476806e-05
-0.0021064575 -0.0005530121 0.00036916588 0.00023763796 -0.00017255153 -0.0003299877 0.00036001782 -0.0009705341
-0.0013561667 -0.00015260061 -0.00135715 5.6942185e-06 -0.00024966747 -0.00089110946 0.0002605544 0.00013109487
-0.0007357353 5.3343256e-06 0.00058184384 0.0012980035 -0.002019207 0.00081087335 -0.00017876417 -0.0025353313
0.00047005137 -0.00033333775 -0.00012072109 -0.0015026829 -0.00058963615 5.6777473e-05 0.00024390702 -0.000647064
00000000: b8b6 b1bb 1042 853a 6218 143a a9a8 8ebb
00000010: 6b5b f13a cf2b 9d3a f3a9 71bb c6e6 b038
00000020: 873e 143b f73d 3ebb ace6 8bbb 6a76 65ba
00000030: c525 1bba 9c0b c03a 4fc2 08bb 076e 9c3b
00000040: dabb cfba 96cc b6bb cf0f e2bb 216a 80ba
00000050: def3 b13b f48f e1bb a22e 6c3b e7f9 a6b9
00000060: d0e9 34bc 3b18 86bc 5004 57bc 3eba 533a
00000070: 8d58 88ba 1584 c53a 38e8 20ba 1584 50bb
00000080: 4768 1b3a e973 8cba 96dc b1b8 a07c a939
00000090: b3bf 723a 4919 39ba 2108 a03a ae8c 3e3a
000000a0: 38a9 46bb 7b62 8339 a7b0 d4b9 75ae 84ba
000000b0: 73a2 44ba abe0 9a39 eb97 0b39 a233 33b8
000000c0: af31 5d39 b861 8c39 6ea9 8eb8 e075 8db9
000000d0: 9a96 3eb9 2155 48b9 47ae 993a a833 67ba
000000e0: ee81 943a a4a9 ee39 b680 02bb 2bbc 1639
000000f0: d065 bfb9 ccb2 1eba 5031 87ba 4cc9 bfbb
00000100: 2929 ff3a 7364 0b3c 136f 41bb 0818 b53a
00000110: 810d 313b 5689 01bc ce57 41bc bb13 d1bb
00000120: 4e75 8a39 2f4a 08bb 2ff0 553c f878 dbbb
00000130: b069 98bc 4ede c53b d4cd 1fbc 4ab1 3fbb
00000140: 6760 de38 cc91 2eba 79fe 91b9 d978 0739
00000150: 1c86 48ba 08ba 4f39 64c8 8739 eda9 ebb9
00000160: c85b 1e39 bf8a 113a 73d3 a0bb 55e7 353b
00000170: c90c 5d3b a1dc bbbb d667 273b bebe 4b3a
00000180: bcd6 a8bb 61d1 58ba 7c9b d6ba 387e 313b
00000190: 54ec 77bb ee92 b03b 8bda fc39 7cc2 0bbc
000001a0: 9fa2 d039 2117 e6ba 292e 1dbc 56ad ecbb
000001b0: 1c82 3f3c e433 cc3a 26cb d0b9 8bf1 3fba
000001c0: afc6 d13b 4a0f daba 8abe 9cbb e517 b6bb
000001d0: 382c 46bc 106c bc3b e64c 83bb 6d5a df3b
000001e0: 0dcd 4bba 4732 73bc 11e9 933b a667 d8bb
000001f0: 8a8e 69bb 7daa 41bb ee2a fab9 367d 3d3a
00000200: 184c 9f38 4a85 c337 bb91 2e3a af55 e3b9
00000210: 17f5 a738 c434 e539 0785 9d39 4930 8dbb
00000220: f3ff b23a ee84 ec3b f323 ddbb 1a50 9b3a
00000230: a1b6 643a 34ad 59bb b459 c1bb 3853 f3ba
00000240: bdad 053c f627 88bc 13b5 343c 7fb3 82ba
00000250: 4076 f2bc b779 0c3b 23fd 97bb 4630 a6bb
00000260: 9cff 2ebc c8f9 9a3a 7664 adba fb75 4a3a
00000270: 2b97 b9b9 e48d 02bb 531e 5838 c729 e5b9
00000280: eb9c 7139 b9e0 b039 6ddb c2b7 0fb6 033b
00000290: 8d1a 7b39 b36a 503b 337f 653a 1d9d 10bb
000002a0: 240e f83a fc6b 66ba 639e c037 7cfb a0bb
000002b0: 32fd 66bb 4b62 e93a 0e83 f1bb c576 3c3b
000002c0: ca93 5e3b 0148 00bb 6c56 2b3b df8d 503b
000002d0: a491 83ba 5b6d e4b9 5340 9bba 1cc2 343a
000002e0: 451c e639 52c7 b0ba 2281 a43a 74bf 6cb8
000002f0: b4dd 26bb 7948 bebb 8258 443a 1033 69bb
00000300: dc0f 8b3b c621 ae3b b6a2 acbb b032 863c
00000310: b460 9a3b be7e 7ebb ba4e 803c dbcc fcbb
00000320: ef2a d83b 4932 c73b d461 f2bc da06 853b
00000330: 12cf cbbb a38d b338 2d98 a13b 779c 1838
00000340: 36c0 7cba f8a7 b639 6862 95ba f13b 6538
00000350: d09f 873a 5833 1cba 7dad 843a 660d 403a
00000360: d927 443b 7168 00bc 4d53 d63b 5ad3 a4bb
00000370: a27e 4cbc 7122 0a3b f4b2 6fbb cccc 9c38
00000380: 7e0c 0abb 04f8 10ba 9b8c c139 742e 7939
00000390: f3ee 34b9 3302 adb9 c6c0 bc39 716b 7eba
000003a0: 67c1 b1ba 6a03 20b9 66e2 b1ba f710 bf36
000003b0: cde5 82b9 5899 69ba 059b 8839 8376 0939
000003c0: 5cde 40ba 82fd b236 e186 183a c521 aa3a
000003d0: ac54 04bb ca90 543a a472 3bb9 cd27 26bb
000003e0: 3a71 f639 d6c3 aeb9 a42b fdb8 acf5 c4ba
000003f0: d091 1aba 5924 6e38 4bc1 7f39 bb9f 29ba

trunk.2.conv.weight f4 [39, 39, 3, 3]
0.0025478879 6.252698e-05 0.00020573415 0.0017787513 -0.01087967 0.0012313746 0.0019006064 0.0046175374
0.00539192 0.0068554687 -0.005881735 -0.0054338095 0.0028123867 0.010869866 0.0009877438 -0.0066604875
0.0024775418 0.004332478 4.308828e-05 -0.008256527 0.0061236173 0.005493897 -0.007725856 0.00052459276
0.00077883474 0.0012247878 -0.003985495 -0.0032684777 0.0030146025 -0.0036863869 -0.0022679134 0.014379529
0.0032688577 0.007109067 -0.007730432 0.001992149 0.0046746586 -0.0010491636 0.0033899606 -5.908856e-05
-0.013298472 -0.0042044707 -0.003911825 0.0028953091 0.0019911851 0.004828994 -0.004154924 -0.0009210173
-0.0013854343 0.011469634 -0.002283239 -0.0042265914 0.0020341622 -0.0014284186 -0.005665917 -0.0048768334
-0.009579861 0.009925703 0.061126266 0.0025575913 -0.003504258 -0.015538778 0.017253341 -0.008313531
0.017413419 -0.010193579 -0.0024301542 0.02632607 0.00774565 0.014082946 -0.020633683 0.010538419
-0.00057114864 -0.0021005534 0.006444431 0.009592706 -0.015965145 0.00068149756 -0.0015580603 -0.00026130278
-0.0022644973 0.0018418811 -0.00048197006 0.0010094985 0.0023781469 -0.0042662346 0.0038309637 0.00052526046
0.00062109745 -0.0045879926 0.0013048436 0.0039059184 0.0006408607 -0.004958491 0.006066088 0.0034131173
0.0024967142 -0.0013515787 -0.006893242 -0.0010867262 0.0042919707 0.008460897 0.01484335 -0.017589098
0.0027798354 -0.015349581 0.015453716 -0.0033862113 -1.2899256e-05 -0.00015172394 -0.0051324656 -0.007521904
0.02580077 0.0053632595 0.0092002 -0.008799813 -0.0026117198 0.008526613 -0.012072533 0.0049920166
-0.005824899 -0.01951532 0.0019802726 -0.001804558 0.011190477 0.0017187181 -0.0011198028 -0.0074640056
0.0037417992 0.0043333853 -0.00062791107 -0.0003870045 -0.0028809467 0.0011982495 -0.0006996783 -0.0022313537
0.0035854294 0.004739473 0.001616483 0.00066702755 0.0011056991 -0.00436076 -0.001560706 -0.0018484048
0.0004764476 0.0062915487 -0.0022930943 0.002429547 -0.00024113568 0.007673375 -0.002063856 -0.0020365464
0.0025439374 -0.0003906703 -0.0049764602 0.005220401 0.0009863834 -0.002144978 0.002808209 -0.001704883
0.0019632897 -0.002584375 0.001364485 -0.00032801344 0.0024066907 0.0043376326 -0.01339953 -0.009864407
-0.0032344465 0.0034590494 0.0031359855 0.00080622337 -0.011831626 0.004908793 0.0061653447 0.012826212
-0.002153629 -0.012203386 0.0022240477 0.00021844704 -0.013421452 0.025655229 -0.030448068 -0.021838052
0.08368458 0.05196319 0.050657716 -0.049368642 -0.00057164545 -0.0079249265 -0.0007388575 -0.018089728
0.0017146525 0.08730566 0.0074426057 0.009897302 -0.030376129 0.02172473 0.012752354 0.020603849
0.007342915 -0.006470873 -0.011900303 0.0024406132 -0.009000076 0.012417056 0.0035640115 -0.00015114488
0.0027993938 0.0012291813 -0.00021175973 -0.007270525 -0.0012471104 0.0067423526 0.0021376214 0.0006485249
-0.0001483643 0.009232976 -0.009997398 -0.009235282 0.020196456 0.015531931 0.014954789 -0.010504945
-0.002440438 0.003703763 0.011212415 0.007114753 -0.0013715174 -0.022739623 -0.020683609 -0.00069108047
0.027210161 0.010560152 -0.004318889 0.023229796 -0.01373747 -0.011520392 0.040088415 0.015216414
0.019677425 -0.023640087 0.003232498 -0.004158558 0.0031563384 -0.0033134099 -0.0039387587 0.023078743
0.0041525057 0.008508443 -0.010830767 1.5929481e-05 0.003783844 0.0044017886 0.0021294386 -0.00121088
00000000: 77fa 263b eb20 8338 57ba 5739 fd24 e93a
00000010: a540 32bc 1366 a13a c51d f93a b64e 973b
00000020: b4ae b03b d7a3 e03b 92bb c0bb 190e b2bb
00000030: 0550 383b 8617 323c 2f77 813a 3840 dabb
00000040: 415e 223b 76f7 8d3b b0b9 3438 6246 07bc
00000050: a0a8 c83b 2606 b43b 2d29 fdbb d384 093a
00000060: b72a 4c3a 0f89 a03a c198 82bb f533 56bb
00000070: a390 453b 4f97 71bb 46a1 14bb 1e98 6b3c
00000080: 553a 563b 2df3 e83b 904f fdbb b78e 023b
00000090: e12d 993b 1784 89ba 1a2a 5e3b dcd5 77b8
000000a0: d6e1 59bc a8c5 89bb c42e 80bb 3abf 3d3b
000000b0: 8b7e 023b 8a3c 9e3b 0726 88bb 6d70 71ba
000000c0: 7697 b5ba 22eb 3b3c 65a2 15bb 387f 8abb
000000d0: 944f 053b c639 bbba 28a9 b9bb d8cd 9fbb
000000e0: d9f4 1cbc 6a9f 223c 895f 7a3d 439d 273b
000000f0: b2a7 65bb 5c96 7ebc e156 8d3c 7a35 08bc
00000100: 96a6 8e3c f802 27bc 3943 1fbb c5a9 d73c
00000110: 39cf fd3b 28bc 663c f807 a9bc 55a9 2c3c
00000120: 23b9 15ba 70a9 09bb ce2b d33b ba2a 1d3c
00000130: 56c9 82bc 87a6 323a d437 ccba 77ff 88b9
00000140: f667 14bb 466b f13a edb0 fcb9 2651 843a
00000150: afda 1b3b c5cb 8bbb e810 7b3b a2b1 093a
00000160: 25d1 223a df56 96bb 4907 ab3a 70fa 7f3b
00000170: 6fff 273a d67a a2bb 09c6 c63b 9bae 5f3b
00000180: ea9f 233b 7527 b1ba b4e0 e1bb 7b70 8eba
00000190: a9a3 8c3b 939f 0a3c 8631 733c 0317 90bc
000001a0: e62d 363b cf7c 7bbc 9531 7d3c 33eb 5dbb
000001b0: e269 58b7 1618 1fb9 3e2e a8bb 4e7a f6bb
000001c0: 235c d33c 48be af3b 70bc 163c 172d 10bc
000001d0: 6329 2bbb 35b3 0b3c e0cb 45bc 1294 a33b
000001e0: cbde bebb 98de 9fbc 76c7 013b eb86 ecba
000001f0: 4358 373c 9c46 e13a 59c6 92ba 9e94 f4bb
00000200: f938 753b 12ff 8d3b 669a 24ba dde6 cab9
00000210: 44ce 3cbb 950e 9d3a 9e6a 37ba e73b 12bb
00000220: 86f9 6a3b 954d 9b3b 2be0 d33a 76db 2e3a
00000230: 1bed 903a b5e4 8ebb 9a90 ccba 2c46 f2ba
00000240: b7cb f939 5629 ce3b bd47 16bb 0939 1f3b
00000250: 5ed9 7cb9 ef70 fb3b c241 07bb 9477 05bb
00000260: 30b8 263b e1d2 ccb9 9311 a3bb e60f ab3b
00000270: 8949 813a c292 0cbb ee09 383b 6176 dfba
00000280: 89aa 003b 9e5e 29bb 85d8 b23a 38f9 abb9
00000290: 92b9 1d3b b322 8e3b b489 5bbc 529e 21bc
000002a0: 02f9 53bb 38b1 623b 1b85 4d3b bc58 533a
000002b0: 70d9 41bc f1d9 a03b a906 ca3b 0825 523c
000002c0: e623 0dbb b6f0 47bc 54c1 113b ee0e 6539
000002d0: a6e5 5bbc ea2a d23c 3a6e f9bc b7e5 b2bc
000002e0: d262 ab3d 5bd7 543d 777e 4f3d c636 4abd
000002f0: 7ada 15ba 8dd7 01bc e3af 41ba e930 94bc
00000300: 31be e03a 4fcd b23d 1ae1 f33b 4b28 223c
00000310: 5cd7 f8bc 10f8 b13c 40ef 503c 67c9 a83c
00000320: d69c f03b 9e09 d4bb 7df9 42bc b2f2 1f3b
00000330: 0e75 13bc e870 4b3c 3192 693b a57c 1eb9
00000340: 0976 373b 7b1c a13a d20b 5eb9 963d eebb
00000350: 1576 a3ba f4ee dc3b 5617 0c3b c501 2a3a
00000360: 3d92 1bb9 e845 173c 20cc 23bc 954f 17bc
00000370: 0a73 a53c a479 7e3c ee04 753c ef1c 2cbc
00000380: c1ef 1fbb d5ba 723b 47b4 373c e022 e93b
00000390: 7dc4 b3ba 7248 babc ac70 a9bc a029 35ba
000003a0: d8e7 de3c 7d04 2d3c 7885 8dbb 6a4c be3c
000003b0: 2013 61bc 07c0 3cbc c033 243d 444e 793c
000003c0: 8d32 a13c dba8 c1bc 51d8 533b 8344 88bb
000003d0: 92da 4e3b cb25 59bb b410 81bb a20f bd3c
000003e0: be11 883b ff66 0b3c 8873 31bc 4da0 8537
000003f0: 5efa 773b e13c 903b 0d8e 0b3b 64b6 9eba

trunk.3.conv.weight f4 [39, 39, 3, 3]
-0.06678805 -0.09780192 -0.065040626 -0.0018819955 -0.009321553 0.0027034422 0.07432782 0.09750636
0.07178965 -0.061492745 -0.05889061 -0.03998774 -0.009222898 -0.0054959 0.0042657503 0.05767002
0.06371595 0.04968012 0.016827192 0.024406785 0.012112913 0.016647134 0.028404074 0.019752959
0.027339991 0.03750607 0.036408648 -0.098759 -0.11530187 -0.1073992 -0.011001137 0.022292167
-0.007239544 0.09218774 0.15179774 0.09795018 -0.04652523 -0.023359085 -0.027670616 -0.005153824
0.0025631704 0.0039595226 0.04674595 0.037976336 0.039619036 -0.25020325 -0.37516317 -0.27052045
-0.008898868 0.010460553 0.0052989824 0.26333794 0.41756538 0.28707314 0.0077697462 0.016967136
0.017791884 0.02006417 0.02474681 0.016127685 0.028313087 0.02478413 0.011625783 -0.0004100764
-0.00040483483 0.0025756133 -0.0024917712 -0.0036562926 -0.0014237065 -0.004825417 -0.005180652 -0.0041428697
-0.01890425 -0.011883331 -0.01416832 -0.0071242196 0.00033302247 -0.001275766 0.046032067 0.052352596
0.04917361 -0.004988629 -0.0021462957 -0.00948209 -0.0037718872 0.008331575 -0.0052524502 0.02076313
0.031438213 0.018303206 -0.0039296057 -0.0053903465 0.004694683 -0.00814173 -0.011500714 -0.0031574215
-0.015417089 -0.015778424 -0.012462722 0.0012034513 0.0077303224 0.011418204 0.0074114436 0.008792792
0.007125734 0.014734712 0.010433089 0.004031649 -0.0021563235 0.0130614415 0.021989787 0.0115914075
0.01598295 0.015236158 0.029110692 0.02238621 0.0121923145 -0.25675142 -0.37329742 -0.26534835
-0.014128298 0.0073391437 0.0067105237 0.26900887 0.41306192 0.27844685 0.0006253458 0.0071195737
0.011051524 0.0023085207 0.001822425 0.002935382 0.008273257 0.0047669713 0.0017764443 -0.077761985
-0.1005196 -0.08957868 -0.002651708 0.017909955 -0.008695511 0.07916017 0.12769745 0.08137743
-0.025772417 -0.039780263 -0.03244382 0.0008620604 0.0005680769 -0.0007236261 0.027329711 0.042368893
0.032146715 -0.042567827 -0.07541056 -0.14991577 0.017187776 -0.00059611176 -0.031980354 0.07403132
0.08433738 0.09349459 0.002319055 -6.260946e-05 -0.0012469366 -0.00023520645 -0.0024726186 -0.002110379
-0.0030672387 -0.0043596625 -0.004142548 0.012016478 0.015237757 0.008931118 0.007423301 0.020158323
0.006659753 0.023745123 0.03354167 0.021632973 -0.0024151285 -0.0004669886 -0.002164183 -0.0002851838
0.0030272978 -0.0021590027 0.011324112 0.0136793675 0.0069700326 0.029181289 0.02416661 0.009588187
0.01960304 0.022081597 0.025367765 0.018428564 0.030807639 0.049709 0.00837815 0.013043997
0.009558033 0.016569907 0.02077124 0.011056039 0.022264244 0.023508219 0.013392403 -0.065825045
-0.049160026 -0.065784104 -0.014679754 0.01933489 -0.013048176 0.070207864 0.09924179 0.06612883
-0.25468105 -0.3501028 -0.26082814 -0.016391575 0.02122065 -0.0010704462 0.26018706 0.39974985
0.25778776 -0.005070223 0.0031178775 -0.008924838 0.0062226914 0.027992813 0.0032401024 0.03998749
0.056952536 0.0311702 -0.11965871 -0.16345888 -0.11734453 -0.0050389734 0.0017264639 0.0017181269
0.1223137 0.17409842 0.11551484 -0.12675744 -0.06876583 -0.043984644 -0.022332199 0.012782402
0.011507914 0.108826116 0.10662341 0.07338127 -0.026344718 -0.01435953 -0.031224739 -0.008033068
00000000: 2cc8 88bd 5f4c c8bd 0534 85bd 4aad f6ba
00000010: 6db9 18bc 3c2c 313b 2f39 983d 6ab1 c73d
00000020: 7406 933d d1df 7bbd 4837 71bd 2fca 23bd
00000030: a31b 17bc f316 b4bb b5c7 8b3b 6637 6c3d
00000040: 827d 823d 627d 4b3d 2ed9 893c bdf0 c73c
00000050: 3d75 463c 925f 883c a9af e83c f5d0 a13c
00000060: 1ef8 df3c f79f 193d 3c21 153d 2942 cabd
00000070: 6323 ecbd 1df4 dbbd 1d3e 34bc 109e b63c
00000080: b239 edbb edcc bc3d de70 1b3e 1b9a c83d
00000090: 3d91 3ebd 8d5b bfbc 7dad e2bc 69e1 a8bb
000000a0: ddfa 273b e2be 813b ae78 3f3d 138d 1b3d
000000b0: 9247 223d a41a 80be 6315 c0be a881 8abe
000000c0: 8fcc 11bc bd62 2b3c 16a3 ad3b 3bd4 863e
000000d0: 21cb d53e 40fb 923e 5b99 fe3b aafe 8a3c
000000e0: 49c0 913c 9d5d a43c d2b9 ca3c 351e 843c
000000f0: d9f0 e73c 1608 cb3c 117a 3e3c 86ff d6b9
00000100: 0340 d4b9 9fcb 283b fc4c 23bb 699e 6fbb
00000110: aa9b baba 881e 9ebb 75c2 a9bb e9c0 87bb
00000120: 16dd 9abc 4eb2 42bc 3e22 68bc 4972 e9bb
00000130: 8599 ae39 9a37 a7ba 1f8c 3c3d ad6f 563d
00000140: 446a 493d a777 a3bb dea8 0cbb c55a 1bbc
00000150: c431 77bb 2981 083c bf1c acbb 7117 aa3c
00000160: 5bc5 003d 9bf0 953c ecc3 80bb 81a1 b0bb
00000170: dbd5 993b e464 05bc 7e6d 3cbc beec 4ebb
00000180: f597 7cbc c141 81bc 7230 4cbc 20bd 9d3a
00000190: a54e fd3b 6b13 3b3c b2db f23b a50f 103c
000001a0: fd7e e93b dd69 713c 8cef 2a3c ec1b 843b
000001b0: 1b51 0dbb a8ff 553c ed23 b43c e3e9 3d3c
000001c0: adee 823c 14a1 793c 8c79 ee3c 4963 b73c
000001d0: 46c2 473c ec74 83be d720 bfbe bddb 87be
000001e0: 607a 67bc 337d f03b f4e3 db3b 88bb 893e
000001f0: da7c d33e 9690 8e3e 3fee 233a 504b e93b
00000200: 7411 353c 8d4a 173b 70de ee3a 8a5f 403b
00000210: 8e8c 073c 4134 9c3b 94d7 e83a ad41 9fbd
00000220: 38dd cdbd 0775 b7bd 47c8 2dbb e6b7 923c
00000230: 9e77 0ebc ba1e a23d 1fc3 023e 36a9 a63d
00000240: ad20 d3bc a1f0 22bd d0e3 04bd e5fb 613a
00000250: ffea 143a bab1 3dba 8fe2 df3c 018b 2d3d
00000260: 46ac 033d 9a5b 2ebd da70 9abd 8583 19be
00000270: 61cd 8c3c 6244 1cba d5fd 02bd bc9d 973d
00000280: 14b9 ac3d 177a bf3d 49fb 173b 334d 83b8
00000290: 4070 a3ba c0a1 76b9 a80b 22bb 494e 0abb
000002a0: ba03 49bb 80db 8ebb 36be 87bb c3e0 443c
000002b0: c9a7 793c d353 123c 2a3f f33b 1123 a53c
000002c0: 0f3a da3b 2285 c23c fd62 093d a237 b13c
000002d0: 2247 1ebb 26d6 f4b9 f7d4 0dbb b984 95b9
000002e0: a165 463b 0e7e 0dbb c588 393c 6d1f 603c
000002f0: df64 e43b 990d ef3c 0ef9 c53c c517 1d3c
00000300: 8e96 a03c 77e4 b43c 0fd0 cf3c 80f7 963c
00000310: 4d60 fc3c aa9b 4b3d 8244 093c 7db6 553c
00000320: 4c99 1c3c 9dbd 873c 7328 aa3c 6324 353c
00000330: 8163 b63c 4f94 c03c cf6b 5b3c 48cf 86bd
00000340: 065c 49bd d1b9 86bd 5a83 70bc 3464 9e3c
00000350: 04c8 55bc 24c9 8f3d 483f cb3d 8d6e 873d
00000360: 8e65 82be ad40 b3be 448b 85be a047 86bc
00000370: eed6 ad3c 374e 8cba 3d37 853e 03ac cc3e
00000380: c2fc 833e 1d24 a6bb 4e55 4c3b 7c39 12bc
00000390: b8e7 cb3b 2f51 e53c e657 543b ecc9 233d
000003a0: 1047 693d a658 ff3c a00f f5bd c461 27be
000003b0: 5452 f0bd f91d a5bb 844a e23a c632 e13a
000003c0: 9b7f fa3d db46 323e 0b93 ec3d b4cc 01be
000003d0: 19d5 8cbd 3e29 34bd 04f2 b6bc 486d 513c
000003e0: b18b 3c3c 3ae0 de3d 605d da3d eb48 963d
000003f0: e1d0 d7bc 3c44 6bbc 06cb ffbc 219d 03bc

trunk.4.conv.weight f4 [39, 39, 3, 3]
0.034673043 0.01453631 -0.0040572025 0.029833628 0.02446513 -0.0041961893 0.011189056 0.02955099
0.025995692 0.02012341 -0.029613065 -0.055737384 0.0743738 -0.010677219 -0.06776416 0.04722906
0.013052794 -0.04495997 0.024524577 0.010197162 -0.01199542 0.026170058 0.029288713 -0.0015210782
0.016004456 0.012303803 -0.00035020066 0.022267384 0.006412051 -0.003182153 0.029095061 0.02469316
0.00024704364 0.017553981 0.013763791 0.00082481373 -0.0015614871 -0.00042268538 0.0037846852 -0.0008712365
-0.0028248187 0.0028777083 0.00090539403 -0.00077269756 0.0031820212 0.023309184 -0.016207596 -0.040361375
0.04940558 0.0008927268 -0.04177469 0.023993686 0.011674023 -0.024802305 0.017830191 -0.00024456385
-0.024950812 0.029618014 0.008707129 -0.020556193 0.014210022 0.0022745512 -0.012674418 0.023250658
0.009975699 -0.0028137004 0.019586505 0.016097695 -0.0025686016 0.0073080794 0.019132063 0.01735562
-0.009580611 -0.00407393 0.003878944 -0.008199209 -0.010961122 0.0013622483 -0.0044737724 -0.0065587917
0.0022794742 0.0059594805 0.002370569 -0.0012061511 0.004628868 0.0043119458 -0.0005412989 0.001818796
0.0050416747 0.004696047 -0.035153847 -0.015972974 -0.0047348966 -0.03840293 -0.030139074 -0.0045300894
-0.024393922 -0.022534482 -0.0048137973 0.012624107 0.0033328747 -0.0030813192 0.015990922 0.014003769
-0.00066295546 0.0084909145 0.0067395326 -0.00045998502 0.010031284 -0.00881305 -0.018941885 0.025768964
0.0017278945 -0.0206368 0.014347755 0.0068993988 -0.013511653 -0.008304565 -0.001170146 0.0012430062
-0.009396376 -0.0060284026 0.005681644 -0.0009591456 -0.006227115 0.0039345697 -0.010707374 -0.0027233544
0.020853717 -0.0067389375 -0.01718039 0.016194763 0.003418146 -0.005882209 0.016202938 -0.0062831263
-0.009833474 -0.005121974 -0.0014535612 -0.0093465755 -0.0060151056 -0.004682161 -0.019857842 -0.02257075
0.021881115 -0.0028934325 -0.025985574 0.026651839 0.0074461447 -0.0180414 0.007358665 0.010562582
-0.00077883207 0.004426301 -0.009142153 0.003330237 0.005863552 -0.012361255 -0.002487159 -0.0067110057
-0.02996509 -0.02962797 0.012467171 -0.015120403 -0.03423513 0.04467458 -0.0031935372 -0.039082084
0.03078913 0.005378754 -0.027473489 0.015906597 0.008166439 -0.012847116 0.022241572 0.013157284
-0.006448877 0.009907647 -0.0009405742 -0.004502526 -0.033200886 -0.017625488 -0.004886076 -0.02883303
-0.02519348 -0.0070817093 -0.017393291 -0.0150165465 -0.007957872 0.027021924 -0.034577657 -0.07934476
0.10349143 -0.014882266 -0.094859555 0.0722537 0.009753056 -0.06476309 0.029226301 -5.144528e-05
-0.0083650835 0.036338627 0.016816236 -0.008241943 0.024631472 0.0029065632 -0.010667519 0.013647111
0.0028292749 -0.004786996 0.018238585 0.014795507 -0.0016767433 0.0090588005 0.006693831 -0.000876183
0.09094334 0.023378562 -0.018949956 0.12070444 0.10108774 -0.0035241046 0.06853255 0.052801404
-6.8217756e-05 -0.005073188 -0.005752718 0.0013653323 -0.011632157 -0.006400971 0.011813575 -0.0039236476
-0.0033607665 0.012057811 -0.031297937 -0.014587329 -0.004270031 -0.029531507 -0.02528515 -0.008712973
-0.021067869 -0.017267792 -0.007041908 0.010467229 0.0023644352 -0.0051367376 0.013571726 0.011618492
-0.0019895 0.0067915614 0.0052362885 -0.0007943652 0.005626727 -0.005618937 -0.013329485 0.012717874
00000000: 5205 0e3d b429 6e3c 48f2 84bb a765 f43c
00000010: 196b c83c 3080 89bb 4d52 373c eb14 f23c
00000020: ebf4 d43c d9d9 a43c 1997 f2bc e24c 64bd
00000030: 4a51 983d 81ef 2ebc f0c7 8abd 4273 413d
00000040: 63db 553c f227 38bd c4e7 c83c ff11 273c
00000050: 7088 44bc 9762 d63c e2ee ef3c ea5e c7ba
00000060: c71b 833c e495 493c 239b b7b9 176a b63c
00000070: 2f1c d23b ab8b 50bb c458 ee3c 4f49 ca3c
00000080: a385 8139 5ecd 8f3c 8681 613c 5038 583a
00000090: d0aa ccba df9b ddb9 7b08 783b b163 64ba
000000a0: 9820 39bb ef97 3c3b f757 6d3a db8e 4aba
000000b0: 7589 503b e7f2 be3c cbc5 84bc f851 25bd
000000c0: 815d 4a3d e205 6a3a f01b 2bbd 688e c43c
000000d0: 6744 3f3c 342e cbbc 9f10 923c ce38 80b9
000000e0: a565 ccbc 7aa1 f23c 59a8 0e3c 7665 a8bc
000000f0: 27d1 683c a310 153b 5da8 4fbc 2a78 be3c
00000100: 1d71 233c 0f66 38bb e173 a03c 50df 833c
00000110: fc55 28bb 9d78 ef3b d8ba 9c3c 602d 8e3c
00000120: fff7 1cbc 9a7e 85bb e235 7e3b fa55 06bc
00000130: 4796 33bc 788d b23a b998 92bb 22eb d6bb
00000140: 3b63 153b bf47 c33b 8c5b 1b3b b717 9eba
00000150: c2ad 973b 394b 8d3b f4e5 0dba ab64 ee3a
00000160: a234 a53b 4ce1 993b 7bfd 0fbd c1d9 82bc
00000170: 3127 9bbb 644c 1dbd 38e6 f6bc 2571 94bb
00000180: c3d5 c7bc 3c9a b8bc 0fbd 9dbb 58d5 4e3c
00000190: 5c6c 5a3b f5ef 49bb 65ff 823c 1070 653c
000001a0: 30ca 2dba 7a1d 0b3c 4cd7 dc3b 252a f1b9
000001b0: 415a 243c 9c64 10bc 032c 9bbc 6f19 d33c
000001c0: 857a e23a 820e a9bc d912 6b3c 5a14 e23b
000001d0: fb5f 5dbc df0f 08bc 965f 99ba 5eec a23a
000001e0: 42f3 19bc e889 c5bb 162d ba3b 2c6f 7bba
000001f0: d40c ccbb 90ed 803b fb6d 2fbc 4e7a 32bb
00000200: 6ad5 aa3c 4ed2 dcbb e4bd 8cbc e1aa 843c
00000210: f902 603b 8cbf c0bb 06bc 843c afe2 cdbb
00000220: 941c 21bc 3bd6 a7bb 6c85 beba 6122 19bc
00000230: 5d1a c5bb d06c 99bb eaac a2bc 4be6 b8bc
00000240: 0640 b33c be9f 3dbb b3df d4bc f554 da3c
00000250: cafe f33b 8fcb 93bc f520 f13b ae0e 2d3c
00000260: 892a 4cba 810a 913b f8c8 15bc 1b40 5a3b
00000270: 0a23 c03b dc86 4abc 9bff 22bb ffe7 dbbb
00000280: 5979 f5bc 5bb6 f2bc 1b43 4c3c 91bb 77bc
00000290: 233a 0cbd b1fc 363d aa4a 51bb 8914 20bd
000002a0: 7c39 fc3c 4240 b03b 1510 e1bc 8d4e 823c
000002b0: 87cc 053c b67c 52bc f533 b63c a691 573c
000002c0: 1a51 d3bb af53 223c de90 76ba ed89 93bb
000002d0: a7fd 07bd 5463 90bc 601b a0bb 3f33 ecbc
000002e0: 8f62 cebc af0d e8bb 607c 8ebc f607 76bc
000002f0: bc61 02bc 155d dd3c 4da1 0dbd 817f a2bd
00000300: 51f3 d33d bfd4 73bc ba45 c2bd bff9 933d
00000310: 48cb 1f3c 83a2 84bd ff6b ef3c f3c6 57b8
00000320: b40d 09bc d0d7 143d 34c2 893c 3709 07bc
00000330: f1c7 c93c 0a7c 3e3b d1c6 2ebc 2298 5f3c
00000340: 5b6b 393b 3cdc 9cbb 1669 953c db68 723c
00000350: 2bc6 dbba 5d6b 143c ed57 db3b a5af 65ba
00000360: 8040 ba3d 6684 bf3c f03c 9bbc e433 f73d
00000370: 1707 cf3d aaf4 66bb cb5a 8c3d 4946 583d
00000380: 2110 8fb8 fc3c a6bb 4c81 bcbb f3f4 b23a
00000390: cd94 3ebc 3dbf d1bb ba8d 413c f191 80bb
000003a0: 4e40 5cbb 208e 453c 4432 00bd b1ff 6ebc
000003b0: 9eeb 8bbb 0fec f1bc ce22 cfbc dcc0 0ebc
000003c0: 8696 acbc 2f75 8dbc cebf e6bb be7e 2b3c
000003d0: a4f4 1a3b 1452 a8bb f25b 5e3c 7d5b 3e3c
000003e0: 4562 02bb bf8b de3b 2c95 ab3b f23c 50ba
000003f0: 6860 b83b 0f1f b8bb ea63 5abc a15e 503c

trunk.5.conv.weight f4 [39, 39, 3, 3]
0.0064991964 -0.0019013707 -0.038930193 0.019229453 -0.00026924565 -0.04447167 0.0025390463 0.005743952
-0.028583812 0.04097548 0.005385986 -0.09771728 0.04874079 -0.015485821 -0.120109715 0.025812522
0.022761881 -0.06268213 0.014055503 -0.007915364 -0.0343375 0.0185404 -0.016268542 -0.04785821
-0.002574979 -0.0178919 -0.03960713 0.0048265657 0.0014911969 -0.039851405 0.01960387 0.024097253
-0.034536075 -0.0028274518 0.0045428146 -0.026337318 -0.011426417 0.05585727 -0.020307722 0.0060620327
0.10836259 0.011897116 0.005494999 0.04340701 -0.052524455 0.0012214321 -0.0205355 0.024660818
-0.02215855 -0.022561213 0.11533344 0.01234588 -0.004353386 0.012888073 -0.021167293 0.0515277
-0.08844315 0.000804838 0.07793711 -0.107357614 -0.017514491 0.04304456 -0.08062818 -0.007610087
0.013169435 0.007764562 0.02275574 0.02937263 -0.0045837355 -0.010414545 -0.01554799 -0.020513007
-0.02557539 -0.012414419 -0.021548565 0.028956166 0.03370956 -0.021910967 0.006347797 0.004354511
-0.017662212 -0.008079556 0.006659617 0.040252265 -0.01893196 0.00077097595 0.05322758 -0.01165191
-0.0017114474 0.02472797 0.029875403 0.022572583 -0.094458245 0.04723538 0.016628258 -0.115959525
0.022376934 0.013966766 -0.08584746 -0.020740775 0.0038230885 0.007148032 -0.0029335348 0.015672274
0.0011606485 -0.0073943534 -0.0007867794 -0.005712159 0.022690902 0.023952313 -0.011285944 0.0735013
0.038033884 -0.024741216 0.024705227 -0.016683223 -0.037197758 -0.0049930434 0.0070151244 -0.0061274595
0.016575288 0.01819294 -0.02023782 0.00065896293 -0.008401632 -0.016382182 0.00849075 0.008356387
-0.040602744 0.016728733 0.025030851 -0.036002867 0.0077794706 0.011382371 -0.036719833 0.006983375
-0.0061551672 -0.008740828 0.012776647 0.0066901636 -0.015895084 0.0019572265 0.010264187 -0.008038692
0.025314663 0.002450711 -0.07437572 0.06571497 -0.025983835 -0.13735576 0.033592407 0.008566267
-0.07971223 0.015251412 -0.01977622 -0.06585851 0.029350804 0.018970042 -0.055470772 -0.023605488
0.020460213 -0.010197307 0.014802447 0.009913331 0.004162611 0.025085986 0.02632378 -0.0009889842
0.0042721275 0.012031645 -0.00027271343 0.0064987084 -0.0063265436 -0.024019044 0.007358421 -0.017365461
0.00972101 -0.009656612 -0.006640889 0.012045686 -0.02294404 -0.003965623 -0.0009403444 -0.014262024
0.009301876 0.0033617138 -0.02112068 3.860279e-05 0.0010207546 -0.013202461 0.035651367 -0.017820463
0.022438386 0.015955219 -0.022782022 0.021556204 -0.021139313 -0.05322427 -0.0059054466 -0.011037593
-0.02260021 0.013933284 0.008762552 -0.013482343 -0.009728504 0.008465624 -0.0020350402 0.0005998307
0.032726742 -0.03549959 0.03474706 0.03294607 -0.017290158 -0.015569811 -0.015778922 -0.011574449
-0.013670682 0.086706534 -0.08491271 0.012265934 0.12779777 -0.110839844 -0.011354413 0.08073983
-0.08396968 0.038927034 0.013853097 -0.111803405 0.05104695 0.010452229 -0.113677286 0.032976404
0.02450531 -0.0784517 0.028831711 0.0019409737 -0.016168185 0.031424806 0.020756837 -0.020044748
0.0025031276 0.010320232 -0.008610057 -0.010507239 0.05379791 -0.039428607 0.004959681 0.13774166
0.008642877 0.002196466 0.031547092 -0.06075458 0.061542343 -0.020687763 -0.004001924 0.019993441
00000000: 36f7 d43b 6a37 f9ba 4475 1fbd 1687 9d3c
00000010: 8a29 8db9 ed27 36bd 2166 263b c337 bc3b
00000020: 9928 eabc e8d5 273d ed7c b03b ff1f c8bd
00000030: 6ca4 473d 3eb8 7dbc 15fc f5bd c874 d33c
00000040: 2077 ba3c 7d5f 80bd 0d49 663c 71af 01bc
00000050: 7aa5 0cbd 09e2 973c 9b45 85bc f806 44bd
00000060: fbc0 28bb 0992 92bc 163b 22bd 2b28 9e3b
00000070: 4474 c33a 3a3b 23bd 4c98 a03c 9a67 c53c
00000080: b375 0dbd c54c 39bb e4db 943b 5cc1 d7bc
00000090: de35 3bbc 98ca 643d 615c a6bc 04a4 c63b
000000a0: 35ed dd3d 1fec 423c 640f b43b 8dcb 313d
000000b0: e223 57bd 7618 a03a 113a a8bc 7c05 ca3c
000000c0: d985 b5bc 4bd2 b8bc f033 ec3d 6046 4a3c
000000d0: d9a6 8ebb 7f28 533c 0867 adbc b60e 533d
000000e0: af21 b5bd c4fb 523a 7e9d 9f3d 4fde dbbd
000000f0: 8d7a 8fbc 7e4f 303d 6320 a5bd 095e f9bb
00000100: 9dc4 573c de6d fe3b 3f6a ba3c df9e f03c
00000110: 2933 96bb c5a1 2abc ffbc 7ebc e50a a8bc
00000120: 7b83 d1bc d965 4bbc 9e86 b0bc 7b35 ed3c
00000130: 0913 0a3d a17e b3bc 2e01 d03b 49b0 8e3b
00000140: 58b0 90bc 1d60 04bc eb38 da3b 8fdf 243d
00000150: 3317 9bbc 521b 4a3a 2a05 5a3d a7e7 3ebc
00000160: a552 e0ba 5092 ca3c 43bd f43c 23ea b83c
00000170: 5373 c1bd e379 413d fc37 883c 307c edbd
00000180: d54f b73c ddd4 643c cbd0 afbd 8fe8 a9bc
00000190: c88c 7a3b 0a3a ea3b 8c40 40bb 2463 803c
000001a0: e720 983a 554c f2bb df3f 4eba 102d bbbb
000001b0: 45e2 b93c a437 c43c aee8 38bc d987 963d
000001c0: 6bc9 1b3d 17ae cabc 9e62 ca3c 41ab 88bc
000001d0: ad5c 18bd af9c a3bb 21df e53b dbc8 c8bb
000001e0: e6c8 873c 5c09 953c c9c9 a5bc 41be 2c3a
000001f0: 00a7 09bc ed33 86bc c91c 0b3c 3ae9 083c
00000200: 104f 26bd b20a 893c 800d cd3c be77 13bd
00000210: eeea fe3b 207d 3a3c 8967 16bd ccd4 e43b
00000220: 49b1 c9bb b135 0fbc 2455 513c 2939 db3b
00000230: 6836 82bc d044 003b 1f2b 283c b8b4 03bc
00000240: b260 cf3c 1c9c 203b 4c52 98bd 9295 863d
00000250: 0ddc d4bc fda6 0cbe 3198 093d 8759 0c3c
00000260: 2a40 a3bd 0fe1 793c bd01 a2bc d4e0 86bd
00000270: 1971 f03c 1067 9b3c 5235 63bd 4c60 c1bc
00000280: 2d9c a73c 9b12 27bc f685 723c 866b 223c
00000290: 8366 883b 2081 cd3c f8a4 d73c cea0 81ba
000002a0: 34fd 8b3b 6020 453c fafa 8eb9 1ef3 d43b
000002b0: e54e cfbb 96c3 c4bc e91e f13b 0342 8ebc
000002c0: df44 1f3c c436 1ebc d19b d9bb 455b 453c
000002d0: 24f5 bbbc 0ff2 81bb 7281 76ba 44ab 69bc
000002e0: e566 183c 3350 5c3b 4705 adbc 6ee9 2138
000002f0: d7ca 853a 234f 58bc 2b07 123d 38fc 91bc
00000300: b5d0 b73c 85b4 823c 5da1 babc a396 b03c
00000310: 5a2c adbc b101 5abd 7a82 c1bb 05d7 34bc
00000320: 1324 b9bc 6e48 643c cf90 0f3c 0ce5 5cbc
00000330: 4e64 1fbc 67b3 0a3c 4f5e 05bb f53d 1d3a
00000340: 7a0c 063d 0568 11bd ef52 0e3d 75f2 063d
00000350: 17a4 8dbc 8518 7fbc cc42 81bc c2a2 3dbc
00000360: fffa 5fbc 3293 b13d b7e6 adbd 0ef7 483c
00000370: 6bdd 023e 0000 e3bd dc07 3abc ed5a a53d
00000380: 4cf8 abbd f471 1f3d 1af8 623c 2ff9 e4bd
00000390: 9b16 513d d33f 2b3c a3cf e8bd 4412 073d
000003a0: 5cbf c83c 49ab a0bd 7b30 ec3c 4568 fe3a
000003b0: 2473 84bc 4cb7 003d 3e0a aa3c e234 a4bc
000003c0: 830b 243b 3116 293c 3211 0dbc 8e26 2cbc
000003d0: 335b 5c3d e47f 21bd d284 a23b 260c 0d3e
000003e0: db9a 0d3c 96f2 0f3b 8637 013d cbd9 78bd
000003f0: d313 7c3d 6279 a9bc 9222 83bb 49c9 a33c
