generated_models/vdsr_distilled_4.onnx (onnx, 995676 bytes, 20 tensors)

conv1.0.weight f4 [39, 1, 3, 3]
000000 70 30 25 3c 8a 78 b5 3c b8 25 6e b8 e5 5e aa bc
       0.010082349 0.022152204 -5.677875e-05 -0.020797202
000010 e7 2a d9 bc 6a fb ad bc b2 af 86 bc ba 56 82 bc
       -0.026509715 -0.021238048 -0.0164412 -0.015910495
000020 67 45 5f bc 87 29 6c bc 03 b3 25 be bf de 53 bd
       -0.013627387 -0.014414198 -0.16181569 -0.0517261
000030 86 fb 43 bd 60 aa 6a 3f fc 4c 45 bd 7c 6c 87 bc
       -0.047847293 0.9166622 -0.04816912 -0.016531222
000040 d2 b0 53 bd 71 6a a3 bc fa ca b1 bb 09 62 f5 bd
       -0.0516823 -0.019948216 -0.005425808 -0.11981589
000050 35 0d 9c 3c 21 49 ca 3d 69 73 12 be c0 a5 d4 bc
       0.019049266 0.098772295 -0.14301838 -0.025957942
000060 32 65 a2 3d 39 64 bf bd 75 92 cf bd 75 c7 d8 b9
       0.07929458 -0.09345288 -0.10135356 -0.00041347338
000070 46 fe 94 ba 96 14 be ba 2d 00 7f 3a 17 0d 6c b9
       -0.0011367283 -0.0014501985 0.0009727504 -0.0002251159
000080 09 0b 6a ba 8b 38 64 3a 00 be 72 39 3c 61 7b b9
       -0.0008928036 0.00087059353 0.00023149699 -0.00023973448
000090 97 e7 0a 3d ca 7a 98 ba 3f 78 32 bd 74 e2 e8 bd
       0.033912268 -0.0011633274 -0.043571707 -0.113713175
0000a0 3d 53 03 3f 1a d3 bb 3d 0a 5b 95 bc 54 f2 e7 bc
       0.51298887 0.09171124 -0.018231887 -0.028313793
0000b0 b2 fa 30 bd a6 f1 d2 3b 0b d3 e6 bc 52 c1 c7 3b
       -0.04320783 0.006437498 -0.028176805 0.0060960436
0000c0 24 4a c3 bc 54 fd 09 3e 99 0c 02 bd 66 b0 43 3b
       -0.023839064 0.13475543 -0.031750295 0.002985978
0000d0 b4 79 aa 3c 3a 29 0a bc 81 83 e5 bc 8c c8 a5 3c
       0.020809986 -0.008432681 -0.028016808 0.02023723
0000e0 94 38 5f bd 97 ab e3 3c 37 a1 d8 3e 70 71 79 3d
       -0.054497316 0.027791781 0.42310497 0.060899198
0000f0 3c f7 2f bd 67 0c 90 bd f9 f7 bd bc 43 a1 89 bd
       -0.04296039 -0.070336156 -0.023189532 -0.06720211
000100 5c 4e 9b bd c6 47 6b 3d 0b 7f 4b 3b 24 72 2f 3f
       -0.07583305 0.057441495 0.0031051065 0.6853354
000110 19 f1 22 be 9f ff 5c 3d af d4 a7 bd 21 c2 c3 bd
       -0.15912284 0.053954717 -0.08194863 -0.095585115
000120 19 8a f5 bd 08 b1 32 be d1 c9 3f be 5b 11 29 3d
       -0.11989231 -0.17450345 -0.1872933 0.041276317
000130 a0 56 15 bd 1f ea 5b bd aa a3 cf 3d 6d 14 aa 3d
       -0.036459565 -0.053690072 0.10138638 0.08304677
000140 5e 6d 9b 3b 62 a4 b7 3d d7 81 96 3d ba f5 83 3d
       0.004743262 0.089669004 0.07348984 0.06443353
000150 72 a4 11 3d 57 6b c2 bd 3f f4 77 bd c6 72 8e bd
       0.035557218 -0.0949313 -0.060535666 -0.06955485
000160 d8 77 29 be 18 41 44 be 90 1d 0b bc 63 62 2d bb
       -0.16549623 -0.19165456 -0.008490935 -0.0026456348
000170 56 c2 e0 39 30 45 af bb d3 d8 0a bc 1f 47 dd bb
       0.000428694 -0.005348824 -0.0084745465 -0.006752863
000180 39 1f c7 3b 0c a7 d1 3b 0a 3e 64 b9 3e a3 3c ba
       0.00607672 0.0063980874 -0.00021766886 -0.0007195956
000190 96 61 84 b9 a4 06 8d 34 2e 48 05 ba d2 cd 18 39
       -0.0002524971 2.6268128e-07 -0.0005084303 0.00014572524
0001a0 30 ae 1f 3a 01 a2 e1 b9 2f cf d8 b7 ff 27 9b 39
       0.00060913246 -0.00043036047 -2.5845684e-05 0.00029593703
0001b0 a1 e6 56 ba cc 24 8a bd 1e e1 8a 3c 3b ad a4 3d
       -0.00081978185 -0.067453 0.016953047 0.080408536
0001c0 e9 42 c3 bd 7c 92 a5 bc f5 d8 2b 3d d6 0f a7 bd
       -0.095342465 -0.02021145 0.041954953 -0.08157317
0001d0 f1 08 9b bd 12 f5 4d bc b4 10 fc bc 37 53 87 ba
       -0.07570065 -0.012570636 -0.030769683 -0.0010324483
0001e0 49 e0 0b bd 4b 48 cc 3e ab 4c 89 bd b6 5c 96 3c
       -0.034149442 0.39898905 -0.067040764 0.018354755
0001f0 69 7d 67 bd c7 74 c4 bc fc 79 9a 3d 05 d4 dc bb
       -0.056516085 -0.023981465 0.07542798 -0.006739142
000200 b0 a6 b6 3d c9 11 a6 bd 1d 95 8a be 72 f7 ef 3c
       0.08918512 -0.08108861 -0.2706689 0.029292796
000210 c2 54 28 be 31 f3 c5 bd 5a ed ad 3d 1e 59 cd 3b
       -0.16438583 -0.09665526 0.08492537 0.006266727
000220 ae ab 23 3c 53 f7 da bb 54 f0 e1 bb 85 32 d8 3d
       0.009989662 -0.0066823154 -0.0068951044 0.10556511
000230 8e b2 09 3c 4b f6 d2 bb ad a5 a9 bc 9d dd b4 bc
       0.008404387 -0.006438052 -0.020708883 -0.02207833
000240 b1 50 0a 3a 96 60 89 ba 8a 42 ee ba c8 6e fa 3a
       0.0005276306 -0.0010481055 -0.0018177789 0.0019106502
000250 1e 60 9e b9 28 8c ab ba 40 79 83 3a dc 19 a2 b9
       -0.0003020772 -0.0013088034 0.0010030642 -0.00030918315
000260 f5 12 80 ba dc 8d a9 bd fe 7e fd bd 8e e4 ff 3c
       -0.0009771275 -0.08279011 -0.123777375 0.031236913
000270 8e de 19 3d 72 bb 33 3f f6 3e 1c be c1 53 ec 3c
       0.03756576 0.70207894 -0.15258393 0.02884853
000280 f0 a5 e5 bc a0 3c 5d bd 2f cc 96 3d 19 c2 c0 bd
       -0.028033227 -0.054012895 0.07363164 -0.09412021
000290 fa cb 21 bd e5 eb 6d 3c 41 ff 1a 3d 7f 59 d5 bd
       -0.039501168 0.014521574 0.037841085 -0.10417461
0002a0 ac 4f e4 bd 29 05 95 3e e4 ef 93 3d f7 24 7f ba
       -0.11148009 0.291055 0.0722349 -0.0009732986
0002b0 ad 98 85 ba 8d 58 81 39 84 a7 69 ba ca 1f bb ba
       -0.0010192596 0.00024670773 -0.00089132064 -0.0014276442
0002c0 5f 3d d9 3a 89 76 a7 b9 cf f2 dd ba 68 8c ed 36
       0.0016574076 -0.00031941038 -0.0016933325 7.079496e-06
0002d0 5f c8 02 bd 73 a3 47 3d 0a 1c bf 3d 33 98 a4 bd
       -0.03192937 0.04873986 0.0933152 -0.08036842
0002e0 1e 45 1a bd 33 be 41 3d bc 94 04 be 46 e2 9f bd
       -0.03766357 0.04730053 -0.12947363 -0.0780683
0002f0 7e d3 e4 bc a7 6e 62 3d 12 81 48 be bd 05 a5 3c
       -0.027932879 0.055281308 -0.19580486 0.020144338
000300 2d f4 39 3d 2c 29 b0 be 38 04 c3 3e 64 3c d9 bd
       0.04539888 -0.34406412 0.38089156 -0.10607222
000310 5b f9 9f be d4 bf c0 3d ff 8c ef bc 66 8e 51 bd
       -0.3124493 0.09411588 -0.029242037 -0.051161192
000320 ad 1c a6 3c 32 ef 4e bc 25 35 8f 3e da a8 66 bb
       0.020277346 -0.012630271 0.27970234 -0.0035195858
000330 03 e2 b0 3c 7d 34 53 bd cc 3d 04 bd fc 9e 67 3d
       0.021592146 -0.05156373 -0.032285497 0.056548104
000340 a3 6e ad 3d 33 06 a1 bd 66 99 3c bd d8 ba e4 3e
       0.08468368 -0.078625105 -0.04604473 0.446738
000350 10 31 98 bc 2b 64 6e bd 7e 92 8e bd 41 be e1 bc
       -0.018578082 -0.058200996 -0.06961535 -0.02755654
000360 f8 07 9f bb 80 f7 ff bc 6e 73 08 bd 49 7b ba 3c
       -0.004853245 -0.031245947 -0.033313207 0.022763865
000370 ab 3a a2 bc ca 27 00 bd 03 9d 23 3d c8 64 8c 3c
       -0.019803366 -0.031287946 0.03994466 0.0171379
000380 b9 d5 cf bc fd 5b e9 3c a3 4d 93 3c 05 71 3d bb
       -0.025370466 0.028486246 0.017981356 -0.0028906476
000390 9c 36 1d 3b 8e 95 3b bc ef 3e 30 bc c8 a3 6e bc
       0.0023988849 -0.011449231 -0.010757192 -0.014565416
0003a0 cd 0e 67 bc 05 b8 39 bc 3e 55 c4 bd 25 4e e0 bd
       -0.01410265 -0.011335378 -0.09586571 -0.10952405
0003b0 7c 7b f9 bd 81 90 b6 bc 30 b3 8a bb cc d9 60 bc
       -0.12181756 -0.022285702 -0.0042327866 -0.013723802
0003c0 d8 61 24 3d 3e 34 a4 3d 39 fe 3c 3d e4 10 be 3a
       0.040132374 0.08017777 0.046140883 0.0014500883
0003d0 d8 96 c0 ba 55 86 44 ba f8 d6 0c bb 52 77 63 3c
       -0.0014693392 -0.00074968237 -0.0021490436 0.013883429
0003e0 6f e4 4c 3b 5d b0 8b 39 35 91 91 bb d6 6c 7a bb
       0.0031264087 0.00026643547 -0.004442359 -0.0038211844
0003f0 c7 f8 a0 b9 85 12 f0 b9 b0 da f8 b9 64 bd 00 3a
       -0.00030702932 -0.00045790165 -0.0004746518 0.0004911034

trunk.0.conv.weight f4 [39, 39, 3, 3]
000000 67 c4 df b9 08 7e 1b 3a 42 9e 77 3a d4 14 f9 b9
       -0.00042680206 0.0005931561 0.00094458845 -0.000475085
000010 6e c3 21 b6 f6 b1 4b 39 cc 3c 3b b6 6f 37 6f ba
       -2.4104625e-06 0.00019425884 -2.790056e-06 -0.0009125387
000020 7c c8 e3 b9 3c 40 aa bc 5d 57 22 bc 19 1d 9b 3b
       -0.00043446186 -0.020782582 -0.009908524 0.0047336933
000030 8d 73 92 bb bf 40 15 bd 8c 9a d4 3a 13 f2 a5 3b
       -0.004469341 -0.0364387 0.0016220375 0.005064258
000040 47 18 88 bb 13 d7 88 3c 61 d8 3c 3c f2 02 97 39
       -0.0041532847 0.016704118 0.011526198 0.0002880316
000050 1b 95 57 bb cc 01 27 3c 3b ab 23 3b f6 15 9b bb
       -0.003289527 0.0101932995 0.0024973887 -0.0047328426
000060 37 41 bb 3b ec 14 29 3b e3 22 82 ba e5 ce b6 37
       0.0057145613 0.0025799824 -0.000992861 2.1792433e-05
000070 4b a3 4e b8 4c 27 c5 36 f8 95 be 37 f4 6b f4 b7
       -4.9266306e-05 5.8756323e-06 2.27196e-05 -2.9137336e-05
000080 54 8d aa b7 76 d3 24 37 4a 0b 84 37 b7 f4 a2 b8
       -2.033139e-05 9.824396e-06 1.5740883e-05 -7.770344e-05
000090 0d e0 8a bc f5 49 e5 ba 94 9e 2f 3c 57 24 75 bc
       -0.016952539 -0.0017493354 0.01071896 -0.014962277
0000a0 83 1c b2 bc f1 38 17 3c 0d 73 c8 bb d4 8e a0 bb
       -0.021742111 0.0092298845 -0.0061172307 -0.004899839
0000b0 35 10 73 3c c8 a7 4b bb 1c 93 0f bb 6e 8d 66 38
       0.014835407 -0.0031075347 -0.0021907752 5.496799e-05
0000c0 08 b9 15 b9 54 bb b3 bb 18 32 32 3a 41 2f 80 39
       -0.00014278677 -0.0054849777 0.00067976257 0.0002444927
0000d0 62 21 7c ba ce 1c 16 3b 27 4d 03 bc 89 d9 3a bb
       -0.00096180115 0.0022905353 -0.008014 -0.0028511009
0000e0 db de 08 3c 09 0e be bb 04 79 9c bc d9 01 95 3a
       0.008353914 -0.005800013 -0.019100673 0.0011368348
0000f0 85 42 36 3b f7 ac 83 bb cc cf 35 3c 01 45 69 b9
       0.0027810645 -0.0040184218 0.011096906 -0.00022246318
000100 03 52 8c bb 3a 96 11 3a 74 20 fe 3b 28 a6 d6 bc
       -0.0042822375 0.00055536965 0.0077553336 -0.026202276
000110 54 c6 6a bb 4c c0 00 3c bf ec 00 bc 85 85 32 3c
       -0.003582378 0.007858347 -0.007868945 0.010896091
000120 a5 27 a5 b9 73 25 6b b9 34 2f 56 39 bb 69 f7 39
       -0.0003150079 -0.00022425297 0.00020426215 0.00047190287
000130 2e ab 0c b9 52 d4 60 ba b3 d8 14 3b 3f 7a 72 3a
       -0.0001341521 -0.000857656 0.002271217 0.00092497835
000140 7e 9b c8 b9 e8 32 3d 3b de 77 b1 3a 05 cb d7 b9
       -0.00038262823 0.0028869454 0.0013539752 -0.00041159257
000150 2b e7 d1 3a 5f ff 24 3a 82 9b 3f ba 8a fe ba 39
       0.0016014328 0.0006294157 -0.0007309244 0.0003566633
000160 8d 2c 59 ba 6b 2f ad ba 3c 44 51 b8 ad cc 94 b9
       -0.00082845317 -0.0013212984 -4.989303e-05 -0.00028381255
000170 b4 4b 9d b9 82 a9 5e b8 cf eb 67 39 cb 5d 03 39
       -0.00030001777 -5.308679e-05 0.00022117722 0.00012528074
000180 c7 cd 01 ba f9 23 68 b8 42 d1 cf 39 2d 42 01 b8
       -0.00049516227 -5.5346612e-05 0.00039638026 -3.0817628e-05
000190 e5 b8 2b b8 2b 94 88 37 87 45 4c b8 12 f0 e1 b7
       -4.0941773e-05 1.628146e-05 -4.8702143e-05 -2.6933882e-05
0001a0 41 b6 c6 b7 c5 c2 6a b7 ce f5 1a b7 a1 66 ee 38
       -2.3688308e-05 -1.3992835e-05 -9.236346e-06 0.000113678405
0001b0 35 a2 8b 3b 24 20 a9 b9 1b 4c f7 ba 58 b8 85 3b
       0.00426128 -0.00032258139 -0.0018867286 0.0040808134
0001c0 7a 5c 01 3a ff df 80 bb 11 89 ee 3a b0 49 70 3a
       0.00049347396 -0.0039329524 0.0018198808 0.0009166254
0001d0 7d 42 04 ba 32 b6 98 bb 97 c2 8c ba 01 ff da 3a
       -0.0005045308 -0.0046603912 -0.0010739145 0.0016708077
0001e0 5b f2 7a 3a 79 40 6f bc 32 df fe 39 0a 67 1f 3b
       0.0009572857 -0.014602774 0.0004861295 0.002432289
0001f0 73 11 9c bb d7 f4 b3 3b ab c4 79 bc 02 53 a8 3a
       -0.0047628223 0.0054918337 -0.015244643 0.0012842121
000200 8a 74 5d 3c d0 bb 60 bc 7f 64 89 3b b4 d3 d3 3b
       0.013516555 -0.013716653 0.0041928883 0.006464446
000210 d7 71 f8 bb b2 de 9a 39 8f 86 88 ba 69 4f ad b9
       -0.00758193 0.0002953909 -0.0010416078 -0.00033056297
000220 45 fd b9 39 75 95 1b 3b a0 d0 08 ba 21 9f 8f bb
       0.0003547465 0.0023740206 -0.0005219076 -0.0043829833
000230 e6 a0 14 3a d2 a4 33 3a d5 4e e9 ba 8c 8f 05 3b
       0.00056697277 0.0006852868 -0.0017799983 0.002037975
000240 74 d1 b6 38 6e 50 d0 38 53 8d 59 36 18 b0 f7 36
       8.71745e-05 9.933194e-05 3.2417781e-06 7.3816736e-06
000250 3e e6 19 37 06 65 98 b7 e1 c5 57 38 38 49 94 b6
       9.173118e-06 -1.8166855e-05 5.1444284e-05 -4.4192675e-06
000260 81 20 08 38 19 94 c9 bb c4 4b 27 bc 53 23 96 ba
       3.24552e-05 -0.006151688 -0.010210935 -0.0011454619
000270 f4 8e d5 3b 07 31 eb bc 97 bb a0 bb 15 86 1d 3c
       0.0065172855 -0.028709901 -0.004905175 0.009614487
000280 e5 34 92 bb 17 37 4d 3c bb 32 ff bb 69 1f 97 bc
       -0.004461872 0.0125253415 -0.00778803 -0.018447595
000290 0a 74 51 bb 8e f8 54 3b 71 84 47 bc 0e 1e 54 bb
       -0.0031960034 0.0032496783 -0.012177573 -0.0032366547
0002a0 d0 25 56 3c 18 1e 72 3b 6d 0c ea 3a 80 87 34 b8
       0.013070539 0.0036944207 0.0017856486 -4.304154e-05
0002b0 49 37 be 38 56 f3 08 b8 03 c9 fe b8 6a 72 39 38
       9.070204e-05 -3.265155e-05 -0.00012149105 4.4213994e-05
0002c0 17 e7 cc b7 39 90 e2 b8 6a 8e b4 38 57 37 f2 37
       -2.4426305e-05 -0.00010803383 8.6095955e-05 2.8874418e-05
0002d0 af af b1 ba aa 3e c2 3a 06 16 27 3b ef 7b 9d ba
       -0.0013556386 0.0014819701 0.0025495305 -0.0012015085
0002e0 c3 b5 b8 39 7d d7 b0 3a e6 6a 72 ba 92 43 20 ba
       0.00035230638 0.0013491955 -0.00092474965 -0.00061135844
0002f0 1c 75 88 39 e1 27 b3 bc 3b 87 e9 36 6a 4b 47 3c
       0.00026027195 -0.021869602 6.959684e-06 0.012163976
000300 14 54 e8 bc bc 23 29 b9 ce f3 17 3c bb 77 9e bc
       -0.028360404 -0.00016130408 0.009274436 -0.019344201
000310 bd 9f a6 3a 3f a5 05 3b 1e 60 89 bb 03 85 f1 b9
       0.0012712401 0.0020392684 -0.0041923663 -0.00046066204
000320 fc ec 06 3b c5 c4 13 bb ee 86 22 bc 76 38 80 3a
       0.002058803 -0.0022547704 -0.009919865 0.0009782452
000330 00 d6 99 ba 86 84 be ba d9 f2 e1 3b 4c 45 a4 bb
       -0.0011736751 -0.0014535345 0.006895405 -0.0050131436
000340 7a 59 a1 3a 2f 48 19 3c 50 2d 99 ba 66 e4 9b bc
       0.0012309991 0.009355589 -0.0011686478 -0.019029807
000350 58 e1 19 3b 52 fc b4 3b e7 f8 1b bc 99 c7 87 3b
       0.0023480263 0.005523243 -0.009519792 0.004143667
000360 f9 47 b1 b7 5c 19 16 ba 10 2f c5 b9 bc c9 2d 3a
       -2.113356e-05 -0.0005725825 -0.00037609832 0.0006629487
000370 12 84 f4 39 7e 13 68 39 ee 1b b3 39 25 c1 cf 37
       0.00046637707 0.00022132506 0.0003416235 2.4766263e-05
000380 2e 93 76 38 b0 d7 91 36 08 f6 27 39 75 d5 47 3a
       5.8788042e-05 4.346446e-06 0.00016018015 0.0007623055
000390 da c2 34 39 dd 94 6e 39 08 46 76 b8 52 50 68 3a
       0.00017238726 0.00022752905 -5.8716192e-05 0.00088620663
0003a0 28 7e 2f 38 8b 67 17 ba 1f 27 2e ba 1a b1 73 39
       4.1840744e-05 -0.0005775622 -0.0006643403 0.00023240261
0003b0 a2 16 d3 39 05 2b c5 b9 c2 3f da 33 41 16 61 ba
       0.0004026192 -0.0003760682 1.01630135e-07 -0.0008586385
0003c0 af 0c 8c 3a eb a5 35 3a af 71 dc b8 09 67 12 b8
       0.0010684932 0.0006929326 -0.00010511593 -3.490507e-05
0003d0 7b 97 f2 38 13 ed 82 39 80 0d 58 b7 77 b3 09 ba
       0.00011567675 0.00024972166 -1.28777465e-05 -0.00052528776
0003e0 bf bf c3 38 55 97 bb 38 2e 4c c1 b8 5c a5 74 39
       9.33404e-05 8.945043e-05 -9.217147e-05 0.00023331254
0003f0 8f aa f9 36 21 63 fb b7 fe 9a 8b 38 7e 46 5d 38
       7.440634e-06 -2.9967692e-05 6.656906e-05 5.2756157e-05

trunk.1.conv.weight f4 [39, 39, 3, 3]
000000 d8 b6 b1 bb ce 1e 85 3a a9 13 13 3a 31 a3 8e bb
       -0.005423408 0.0010156275 0.00056105346 -0.00435295
000010 43 cd f0 3a cb 87 9c 3a 90 e3 71 bb 45 66 9e 38
       0.001837172 0.0011942325 -0.003690932 7.553076e-05
000020 97 c2 13 3b 3e 5b 3e bb 61 fc 8b bb 1a 9b 65 ba
       0.0022546405 -0.0029046084 -0.0042720293 -0.00087587687
000030 6b 73 1b ba 2d 0b c0 3a b3 e6 08 bb 52 3d 9c 3b
       -0.00059299794 0.0014651768 -0.002088946 0.004768052
000040 90 14 d1 ba 5f 25 b7 bb bc 35 e2 bb 8c 87 80 ba
       -0.0015951563 -0.005589172 -0.0069033783 -0.0009806021
000050 df 0c b2 3b d1 8d e1 bb 32 91 6c 3b 3b 5e a5 b9
       0.0054336633 -0.006883361 0.0036097285 -0.0003154146
000060 b2 10 35 bc b7 32 86 bc 27 33 57 bc 4b 5f 50 3a
       -0.011051344 -0.016381605 -0.013134754 0.000794877
000070 33 cc 88 ba 55 86 c7 3a ae 42 21 ba f1 ec 4f bb
       -0.0010436833 0.0015222529 -0.00061515986 -0.0031726921
000080 9d a5 22 3a 7b 65 8c ba b5 b1 9f b8 91 5c b4 39
       0.0006204488 -0.0010711396 -7.614811e-05 0.00034401243
000090 ed 4a 6f 3a e3 b0 3a ba 8a 24 a1 3a 90 b8 3d 3a
       0.0009128291 -0.0007121695 0.0012294215 0.000723728
0000a0 8f 6b 46 bb 30 df 8d 39 9a a3 d4 b9 ee f8 83 ba
       -0.0030276512 0.00027059903 -0.00040557684 -0.0010068694
0000b0 77 43 40 ba 24 0f 9b 39 a9 d9 0b 39 d7 fa 4f b8
       -0.0007334272 0.00029575184 0.00013337158 -4.958626e-05
0000c0 e6 3a 5d 39 70 1c 8d 39 3f f3 93 b8 fe 7b 8d b9
       0.00021098144 0.00026914803 -7.054814e-05 -0.00026985997
0000d0 d6 ad 3e b9 88 0e 49 b9 28 ce 97 3a 92 5a 69 ba
       -0.00018184571 -0.00019174267 0.0011581825 -0.00089017407
0000e0 1f 14 95 3a ed c8 ec 39 ef 57 02 bb 27 0a 25 39
       0.0011373794 0.0004516313 -0.0019888838 0.00015739408
0000f0 c6 c7 be b9 82 83 1d ba b7 c9 85 ba 50 7f bf bb
       -0.00036388467 -0.0006008671 -0.001020721 -0.0058440343
000100 5f ca ff 3a a7 25 0b 3c fc 46 41 bb d1 ea b4 3a
       0.0019515267 0.008492864 -0.0029491773 0.0013802891
000110 d6 0c 30 3b 31 a1 01 bc 6e 7b 41 bc 28 66 d1 bb
       0.002686312 -0.007911966 -0.011809213 -0.006390352
000120 6e 58 2d 39 ad d4 0a bb 9c ac 56 3c 3e 55 db bb
       0.00016531508 -0.0021183894 0.013102677 -0.0066935113
000130 f5 e1 97 bc 46 f1 ca 3b 7e 7a 1f bc ab 67 3b bb
       -0.018540362 0.006193313 -0.009733794 -0.0028595726
000140 52 d4 6c 39 2e ac 2e ba de 14 92 b9 8f 8c 07 39
       0.0002258581 -0.000666323 -0.00027862837 0.00012926965
000150 3b a8 48 ba 2c cb 4f 39 35 d4 87 39 77 22 ec b9
       -0.0007654463 0.00019816746 0.00025907313 -0.00045039106
000160 22 b7 1d 39 de 79 11 3a 92 de a0 bb 1f f7 35 3b
       0.00015040909 0.00055494707 -0.004909345 0.0027765704
000170 f8 6f 5b 3b bc d6 bb bb 01 a4 27 3b 4b 78 48 3a
       0.0033483487 -0.0057323854 0.0025579932 0.00076473196
000180 37 e4 a8 bb d2 9a 57 ba b2 c0 d7 ba 38 59 2e 3b
       -0.0051541585 -0.0008224669 -0.0016460626 0.0026603471
000190 88 a8 78 bb bc 31 b2 3b 39 91 e6 39 06 e1 0b bc
       -0.003794225 0.0054380577 0.00043977218 -0.0085375365
0001a0 c4 df f4 39 ba fc e9 ba 46 47 1d bc d2 d3 ea bb
       0.00046706025 -0.0017851808 -0.009599512 -0.007166364
0001b0 2c af 3f 3c cd 5a cd 3a de f1 03 ba 85 42 42 ba
       0.011699479 0.001566732 -0.00050332944 -0.0007410425
0001c0 48 4e d2 3b 60 ff e0 ba 93 b7 9c bb b2 30 b6 bb
       0.0064180233 -0.0017165951 -0.004782626 -0.005560004
0001d0 e5 b1 46 bc c6 54 ba 3b b3 1e 84 bb 5f 6f e1 3b
       -0.012127374 0.0056863753 -0.00403198 0.0068797315
0001e0 87 7f 51 ba 48 ef 72 bc 06 3e 97 3b f5 84 d8 bb
       -0.00079917203 -0.014827557 0.004615548 -0.0066076466
0001f0 36 f0 67 bb 34 83 3c bb ab 2f fb b9 e5 fc 3c 3a
       -0.003539098 -0.0028764727 -0.00047909966 0.0007209315
000200 33 20 9d 38 e7 39 bd 37 3b 54 2e 3a e1 78 e3 b9
       7.492341e-05 2.2557519e-05 0.00066501246 -0.00043386876
000210 c4 a5 a8 38 61 11 e5 39 5b 9d 9d 39 5c 4f 8e bb
       8.0417405e-05 0.00043691232 0.00030062612 -0.0043429565
000220 96 a5 b1 3a 8a bd eb 3b 40 4c dd bb 60 46 9e 3a
       0.0013553377 0.0071942257 -0.0067534745 0.0012075417
000230 1f 05 6b 3a b2 b6 59 bb 43 d9 c0 bb 04 b5 f0 ba
       0.00089653017 -0.0033220467 -0.0058852746 -0.0018364494
000240 cc b4 03 3c 24 70 88 bc fb a6 37 3c d5 03 8c ba
       0.008038711 -0.016655035 0.011209245 -0.0010682294
000250 fa 57 f2 bc fe 1b 1b 3b d9 67 99 bb 2b 97 a5 bb
       -0.029582966 0.0023667808 -0.004681569 -0.005053421
000260 65 4c 2c bc aa dc 99 3a 6b a8 ad ba d1 b7 4d 3a
       -0.010516261 0.0011738737 -0.0013249045 0.000784752
000270 ff a7 ba b9 bc 24 02 bb a2 d6 94 38 2b 9b e5 b9
       -0.0003560185 -0.0019858321 7.0971684e-05 -0.00043793893
000280 0e 3f 77 39 2c 1a b8 39 ce 62 14 b8 13 48 03 3b
       0.00023579245 0.00035114714 -3.537797e-05 0.0020031973
000290 8f 71 76 39 38 2e 50 3b 33 5c 65 3a 0a b2 10 bb
       0.00023502692 0.003176583 0.00087493955 -0.0022078776
0002a0 21 1f f8 3a d0 8a 66 ba df 26 c1 37 bf 13 a1 bb
       0.0018930176 -0.00087944884 2.3025494e-05 -0.004915684
0002b0 e9 20 67 bb a3 84 e9 3a 97 c2 f1 bb 98 58 3c 3b
       -0.0035267419 0.0017816018 -0.0073779332 0.002873933
0002c0 ee 7e 5e 3b 5e 11 01 bb 70 9c 2a 3b 5a 00 50 3b
       0.0033950168 -0.001969419 0.0026033185 0.003173849
0002d0 c2 67 84 ba 66 8b e5 b9 79 6c 9b ba b5 46 34 3a
       -0.0010101723 -0.00043782144 -0.0011857889 0.0006876991
0002e0 ed 3f e6 39 97 dc b0 ba 62 e8 a2 3a ea 30 86 b8
       0.00043916647 -0.0013493475 0.0012428875 -6.398729e-05
0002f0 34 5b 27 bb cb 71 be bb 44 59 44 3a cf 56 69 bb
       -0.002553654 -0.005811905 0.0007490108 -0.003560472
000300 c6 09 8b 3b 60 32 ae 3b af bd ac bb d0 2d 86 3c
       0.0042431084 0.0053160638 -0.0052716355 0.016379267
000310 6f 22 9a 3b 58 28 7f bb 63 39 7f 3c 7f d8 fd bb
       0.004703812 -0.003893396 0.015577647 -0.0077467556
000320 43 1e dc 3b 1b 16 c7 3b 57 e9 f1 bc ed c7 8b 3b
       0.0067174747 0.006075633 -0.02953021 0.0042657764
000330 59 7d cb bb b8 c5 1f 39 91 c9 a6 3b 31 c0 18 38
       -0.006210011 0.00015237078 0.0050899466 3.6418616e-05
000340 82 e6 7c ba 93 c4 b6 39 00 7d 95 ba 87 c3 64 38
       -0.00096473855 0.00034860204 -0.0011405051 5.4541535e-05
000350 48 ae 87 3a 91 98 1c ba 53 90 84 3a e0 d9 3f 3a
       0.0010351622 -0.0005973662 0.0010113813 0.00073185377
000360 e9 58 40 3b 0d 96 00 bc 83 21 d9 3b 70 a2 a5 bb
       0.002934987 -0.007848275 0.0066263094 -0.0050547644
000370 53 17 4c bc be ac 11 3b a0 ae 70 bb 96 55 c5 38
       -0.012456733 0.0022228207 -0.0036725178 9.409634e-05
000380 ef cb 04 bb b9 8a 10 ba 57 d5 c1 39 f3 48 79 39
       -0.0020263155 -0.00055138353 0.0003697078 0.00023773666
000390 3a 9c 34 b9 af 6a ad b9 a5 77 bc 39 41 b1 7e ba
       -0.00017224337 -0.00033076617 0.00035947296 -0.0009715744
0003a0 e9 f1 b1 ba 8c 44 21 b9 2f 11 b2 ba 76 a1 43 36
       -0.0013576123 -0.00015379692 -0.0013585443 2.9151247e-06
0003b0 ee 22 89 b9 f9 b0 69 ba 57 00 88 39 88 23 05 39
       -0.000261567 -0.00089146156 0.00025940195 0.00012697105
0003c0 5c 40 41 ba d8 8d 8e 35 91 61 16 3a 0e c2 a8 3a
       -0.0007371956 1.0621106e-06 0.00057365844 0.0012875216
0003d0 64 8f 04 bb e4 35 5a 3a 4d e4 45 b9 4c 63 26 bb
       -0.002022707 0.00083240704 -0.00018872433 -0.0025388775
0003e0 f2 fd ff 39 f4 17 b2 b9 18 d4 01 b9 e9 5f c3 ba
       0.00048826594 -0.00033968652 -0.0001238141 -0.0014905903
0003f0 db 12 1a ba dd 1e 75 38 a6 fa 77 39 87 46 29 ba
       -0.00058774435 5.8441296e-05 0.0002364913 -0.0006457348

trunk.2.conv.weight f4 [39, 39, 3, 3]
000000 5a 3c 29 3b c6 36 d0 38 a5 40 81 39 33 0b ee 3a
       0.0025823326 9.928415e-05 0.0002465296 0.0018161297
000010 64 df 31 bc e1 0f a3 3a aa ee fc 3a 17 f9 97 3b
       -0.010856483 0.0012440645 0.0019297202 0.004637848
000020 e5 ac b0 3b 20 e6 d4 3b ff 3e cd bb 36 97 b0 bb
       0.0053917044 0.0064971596 -0.0062636132 -0.0053891195
000030 5e 47 0f 3b 0a d4 29 3c 69 f6 8c 3a df 9d df bb
       0.0021862607 0.010365495 0.0010754588 -0.0068242396
000040 66 2f 1d 3b c8 4b 99 3b fa 3b 45 39 5d 82 04 bc
       0.002398455 0.0046782233 0.00018809727 -0.008087722
000050 b2 b0 cc 3b 81 a5 b6 3b ab 1e f9 bb 7f b4 18 3a
       0.0062466497 0.005573929 -0.007602533 0.0005825236
000060 5f 55 51 3a 22 b7 a3 3a 84 af 82 bb ff 2b 60 bb
       0.00079854386 0.0012490491 -0.0039882082 -0.0034205911
000070 86 2f 29 3b b4 b7 8c bb a0 16 27 bb 32 d5 5f 3c
       0.002581568 -0.00429436 -0.0025495663 0.01366167
000080 fb ae 20 3b 5e e7 ed 3b 87 b5 ff bb f9 ff f2 3a
       0.002451836 0.007260247 -0.007803622 0.001853942
000090 ad 5a 9a 3b 34 3d 85 ba 6c a7 5f 3b ea e5 d2 b7
       0.0047105164 -0.0010165335 0.003412689 -2.5141013e-05
0000a0 96 a4 59 bc 51 5b 89 bb de 4e 7d bb f6 08 42 3b
       -0.013283869 -0.004191794 -0.0038651745 0.0029607392
0000b0 bf 21 06 3b f9 de 92 3b 81 60 98 bb 1c 2c 7e ba
       0.0020466892 0.004482147 -0.004650176 -0.0009695904
0000c0 23 68 db ba 78 f3 34 3c 8d 03 17 bb 5a 9d 90 bb
       -0.0016739409 0.011044376 -0.0023042888 -0.004413289
0000d0 36 4b d6 3a 8a e5 c9 ba 25 87 ef bb 47 88 02 bc
       0.0016349319 -0.0015403491 -0.0073098117 -0.007967061
0000e0 93 ab 45 bc cf 9d fd 3b 11 a1 6b 3d 58 07 b5 39
       -0.012064832 0.0077397595 0.05752665 0.00034528482
0000f0 c7 b3 74 bb c0 24 86 bc dc 10 92 3c 28 bc 0f bc
       -0.00373386 -0.016374946 0.017830305 -0.008772887
000100 f1 58 85 3c b6 dd 40 bc af d9 3f bb b6 fb cb 3c
       0.016277762 -0.01177161 -0.0029274037 0.024900299
000110 69 79 cb 3b 4e 54 67 3c 83 49 ab bc 95 07 27 3c
       0.0062095416 0.014119221 -0.020909077 0.010194679
000120 10 62 08 ba 46 a3 07 bb 5c b1 d3 3b 82 cc 1d 3c
       -0.0005202601 -0.0020696684 0.006460352 0.009631278
000130 1f a4 82 bc 9d 35 35 3a b7 21 cb ba b4 d1 83 b9
       -0.0159474 0.0006912591 -0.0015497719 -0.00025142508
000140 74 03 15 bb bd 35 05 3b 04 48 9f b9 84 d1 96 3a
       -0.0022737654 0.002032622 -0.000303805 0.0011506532
000150 5f ab 1f 3b 83 61 89 bb 0d e1 75 3b eb 06 f4 39
       0.002436362 -0.0041925325 0.0037518174 0.0004654446
000160 54 97 15 3a 06 1c 98 bb db 91 8d 3a 59 72 63 3b
       0.00057064486 -0.0046420125 0.0010800915 0.0034705608
000170 89 f3 bc 39 2b c1 a1 bb fd 31 bc 3b 59 e4 49 3b
       0.00036039602 -0.0049363575 0.0057432638 0.0030806272
000180 57 3f 23 3b 00 21 d4 ba 4f 0f ec bb 06 a1 d9 ba
       0.002490958 -0.0016184151 -0.0072039734 -0.0016603775
000190 38 09 59 3b da 76 00 3c ec 5e 72 3c 7b 4c 91 bc
       0.0033117067 0.007840836 0.014793139 -0.017736664
0001a0 e1 90 4c 3b 89 18 80 bc e7 0d 7e 3c 92 5e 35 bb
       0.0031214284 -0.0156367 0.015506244 -0.0027674777
0001b0 fd 09 a5 b9 f7 e9 58 ba ba 57 bd bb 14 63 02 bc
       -0.00031478694 -0.00082746096 -0.00577828 -0.007958192
0001c0 07 62 ca 3c 2d 6a 8a 3b 42 43 1b 3c 21 01 14 bc
       0.024704946 0.004224083 0.009476485 -0.009033472
0001d0 aa d1 41 bb e5 c0 18 3c 95 bc 3b bc f5 e1 b0 3b
       -0.0029574432 0.009323333 -0.011458536 0.00539803
0001e0 c8 60 ac bb 75 38 9e bc 0d cb 1e 3b 2f dc a2 ba
       -0.0052605607 -0.01931403 0.0024229914 -0.0012425239
0001f0 de 1e 38 3c 8e 4a ef 3a e0 ee 8f ba 67 50 f4 bb
       0.011237828 0.0018256472 -0.0010981224 -0.007455874
000200 c6 62 76 3b d6 77 91 3b 4c ca 13 ba 3f 43 b7 b9
       0.0037595495 0.0044393344 -0.00056377496 -0.00034954582
000210 a7 c7 36 bb dd 79 a3 3a 7b fe 2a ba a7 99 39 39
       -0.0027889998 0.0012472231 -0.0006522906 0.00017700215
000220 e6 50 be 3b c3 d3 2c bb ba 38 0f 3b 73 4a 17 ba
       0.0058079837 -0.0026371337 0.002185388 -0.00057712867
000230 45 27 fa 3b 53 df 09 bb 85 89 02 bb f7 d4 39 3b
       0.007634076 -0.0021037653 -0.0019918394 0.0028355697
000240 72 87 c0 b9 4b ad a2 bb c6 87 ab 3b e1 6b 83 3a
       -0.00036722008 -0.004964506 0.0052346913 0.0010026657
000250 f7 83 0b bb e0 d5 38 3b 28 38 df ba 72 df 00 3b
       -0.0021288374 0.0028203651 -0.0017030286 0.0019664434
000260 43 1c 29 bb b8 76 cd 3a cb 18 8e b9 a8 3c 1d 3b
       -0.0025804199 0.001567564 -0.00027102823 0.0023992453
000270 f2 0e 95 3b 07 70 5b bc 19 ae 21 bc 91 11 4a bb
       0.0045489008 -0.013393409 -0.009868168 -0.0030833224
000280 cb e2 61 3b ba e8 4e 3b ef 4e 76 39 8e 62 50 bc
       0.0034467455 0.0031571821 0.00023489793 -0.01271881
000290 18 e8 96 3b 15 ec b5 3b fa c3 45 3c dc b8 0d bb
       0.0046053044 0.005551825 0.01207065 -0.0021625077
0002a0 62 e3 48 bc 30 8a 09 3b 1d 7f 46 3a a2 ea 6c bc
       -0.012261244 0.0020986907 0.0007572042 -0.014460238
0002b0 3d 85 bb 3c e6 00 0c bd db 19 c3 bc d3 a9 a1 3d
       0.022890681 -0.034180544 -0.02381604 0.078937195
0002c0 c7 8d 3e 3d 9f 08 57 3d 71 47 48 bd 30 9b 58 ba
       0.04652193 0.052498456 -0.048896257 -0.0008262871
0002d0 80 8a 1e bc 8d 50 89 bb cd 4a ad bc 19 34 4b ba
       -0.009676576 -0.0041905106 -0.021153832 -0.00077515986
0002e0 34 a8 a9 3d 91 94 89 3b 54 2b 24 3c cf 0e 00 bd
       0.08284035 0.0041986187 0.010020096 -0.031264123
0002f0 4e b6 b3 3c 26 59 52 3c ad 51 ab 3c 05 81 ef 3b
       0.021937516 0.012838637 0.02091297 0.0073090815
000300 ef c2 ce bb 4b 90 3c bc a5 4d 27 3b 6c b8 0f bc
       -0.006309859 -0.0115090115 0.0025528457 -0.008771997
000310 c4 74 51 3c 42 c0 7a 3b ed 1b 8b b9 cf 34 27 3b
       0.012784187 0.0038261567 -0.00026532952 0.0025513654
000320 1c ae a4 3a a8 ca 23 b8 7a ec ef bb 4f 04 a2 ba
       0.0012564096 -3.9050967e-05 -0.0073218914 -0.0012360903
000330 66 8a e3 3b b8 f3 0b 3b 3f 31 2f 3a e6 52 cc b9
       0.0069439886 0.0021354984 0.00066830585 -0.00038971676
000340 33 6c 0c 3c fa 19 31 bc 9b 05 1e bc 63 1d 9c 3c
       0.008570719 -0.010809416 -0.009644891 0.019056981
000350 f5 9c 68 3c 95 76 7c 3c 59 17 2c bc 0e 33 2f bb
       0.014197578 0.015409132 -0.010503613 -0.0026733312
000360 95 a2 72 3b 57 1a 38 3c 7b 03 eb 3b b7 48 b4 ba
       0.0037023176 0.011236749 0.0071720458 -0.0013754581
000370 4c 61 ba bc ab 4e a9 bc dc 71 32 ba 77 2b df 3c
       -0.022751473 -0.020667395 -0.00068071275 0.027242405
000380 ff 6d 2d 3c b1 94 a8 bb da 74 af 3c 75 93 80 bc
       0.010585307 -0.0051446785 0.021418024 -0.015695313
000390 54 b5 46 bc cf b9 1b 3d 73 b1 56 3c bb 01 a2 3c
       -0.012128193 0.038018998 0.013103831 0.019776216
0003a0 52 5b c7 bc e4 e5 1c 3b 13 7a 93 bb 3b e2 18 3b
       -0.024335537 0.0023940736 -0.0045006364 0.0023328203
0003b0 9c 7e 8b bb 03 e2 8e bb 61 ac b3 3c 70 e6 40 3b
       -0.0042570364 -0.004360439 0.021932783 0.0029434226
0003c0 c4 49 0e 3c 16 25 35 bc 7a 86 81 b9 71 9d 6f 3b
       0.008684579 -0.011056205 -0.0002470499 0.0036562348
0003d0 74 fd 8a 3b 0a f9 59 3b 2e 4a 68 ba f2 37 78 bc
       0.0042416397 0.003326001 -0.00088611513 -0.015150057
0003e0 26 e8 4f 3b ea 75 ed 3b 96 5e 43 3b bf 0c ef 3b
       0.0031724065 0.0072467225 0.0029811016 0.0072952206
0003f0 fa ab 20 3c f1 24 bb bb 6c 38 48 3c f2 9f 95 ba
       0.009806627 -0.005711191 0.012220483 -0.0011415465

trunk.3.conv.weight f4 [39, 39, 3, 3]
000000 54 1b 8a bd b4 be ca bd 1b c7 86 bd cb 73 2b bb
       -0.06743494 -0.09899655 -0.06580945 -0.0026161547
000010 07 fa 2d bc 12 79 04 3b a1 bc 96 3d dc 3e c5 3d
       -0.010618693 0.0020213765 0.07360197 0.0963113
000020 9e 04 92 3d bf 43 7f bd 96 e5 73 bd b7 5f 25 bd
       0.07129787 -0.062320467 -0.059545122 -0.040374484
000030 93 12 26 bc fd a5 c9 bb 78 7f 83 3b 7e 7c 68 3d
       -0.010136264 -0.0061538205 0.004012998 0.05675935
000040 26 5a 81 3d 83 40 4b 3d 3e 2f 8a 3c 3e 22 c3 3c
       0.063160226 0.04962207 0.01686823 0.023820039
000050 a1 61 3f 3c 9c b0 88 3c 42 3d e5 3c 55 a0 9f 3c
       0.011680991 0.016685776 0.027983312 0.019485632
000060 dd 17 e2 3c b4 cd 17 3d ca 1c 14 3d 9e 28 cb bd
       0.02759927 0.03706141 0.036160268 -0.099198565
000070 69 bd ef bd 2f 93 de bd cb 5f 3a bc 56 f5 a6 3c
       -0.11706049 -0.10867917 -0.011375378 0.020380657
000080 07 2c 0b bc c6 2b bc 3d a8 a4 19 3e ec 90 c6 3d
       -0.008494384 0.091880366 0.15004218 0.096956104
000090 71 31 4b bd 79 04 bf bc 43 25 dc bc 44 a4 04 bc
       -0.049607698 -0.023317562 -0.026873237 -0.008095805
0000a0 08 5b 3b 3b 72 4a a2 3b 26 bf 32 3d b6 a6 1c 3d
       0.0028588194 0.004952722 0.043639325 0.038244925
0000b0 c7 ae 26 3d 0f 47 80 be fb d6 c2 be 19 a0 8c be
       0.040694024 -0.25054213 -0.38054642 -0.27465895
0000c0 09 ec 19 bc 71 89 92 3b 4a 87 a6 3a 32 a7 86 3e
       -0.009394654 0.0044719507 0.0012705114 0.26299435
0000d0 ac ea d2 3e 09 47 91 3e a7 45 00 3c df b1 8a 3c
       0.41194665 0.28374508 0.007829106 0.016930519
0000e0 3d 25 93 3c b6 c7 a5 3c 5e 09 cb 3c bf 70 85 3c
       0.017962093 0.020236831 0.02478474 0.016289113
0000f0 fb 07 e9 3c 05 0f cb 3c a7 30 41 3c f0 ec 9b b9
       0.028446188 0.024787435 0.011791385 -0.00029740436
000100 a0 42 a0 b9 74 7f 2a 3b a6 b4 1f bb 05 62 6d bb
       -0.00030567218 0.002601591 -0.002436915 -0.0036221754
000110 7f 97 ba ba ee 10 97 bb 01 c4 a2 bb 3e 43 82 bb
       -0.0014235823 -0.0046101725 -0.004967213 -0.003975301
000120 fb 92 a4 bc e8 30 57 bc 58 8e 78 bc 55 b3 f4 bb
       -0.020089617 -0.013134219 -0.015170656 -0.007467667
000130 c5 ae 4a 39 ca a6 91 ba fc 27 39 3d 7d 17 54 3d
       0.00019329328 -0.0011112329 0.045204148 0.051780213
000140 78 34 49 3d ba d8 a7 bb 87 51 1e bb 4c 38 1e bc
       0.049122304 -0.0051222714 -0.002415748 -0.009656977
000150 83 93 75 bb f1 c7 05 3c 3d 74 b0 bb 4a bc aa 3c
       -0.0037471957 0.0081653455 -0.0053849504 0.020841736
000160 a0 52 00 3d 63 c8 95 3c a2 1b 62 bb 76 85 a4 bb
       0.031328797 0.018284028 -0.0034501334 -0.0050207926
000170 bb 86 9a 3b 86 e8 00 bc 41 b7 39 bc 1d d2 4e bb
       0.004715768 -0.007867938 -0.011335195 -0.0031558343
000180 ec 69 6e bc 61 a2 75 bc 00 c2 42 bc 37 40 a4 3a
       -0.014551621 -0.014992327 -0.0118870735 0.0012531345
000190 2f cd fb 3b 6a ef 3c 3c 91 ad f4 3b ff 32 0f 3c
       0.007684372 0.01153169 0.00746698 0.008740186
0001a0 bd e0 ec 3b fe b5 72 3c 7c 5a 2a 3c f1 97 87 3b
       0.0072289393 0.014813898 0.01039755 0.004137986
0001b0 f6 e4 08 bb 1b 4c 54 3c 53 94 b6 3c af e2 3f 3c
       -0.0020888424 0.012957598 0.022287523 0.01171176
0001c0 ef 24 82 3c e9 10 7e 3c 68 5c ef 3c ab c7 b6 3c
       0.015886752 0.015506961 0.029218867 0.022312006
0001d0 8d 4e 4d 3c 7e d0 83 be b7 c6 c1 be 80 d7 89 be
       0.012530935 -0.25745004 -0.3784692 -0.26922226
0001e0 4c e2 75 bc f1 7c ce 3a 72 e2 41 3b 79 5c 89 3e
       -0.015007567 0.0015753788 0.0029584435 0.26828364
0001f0 2e be d0 3e 3b 02 8d 3e 67 fc 2b 3a 2a 08 e7 3b
       0.40770096 0.27540764 0.0006560743 0.007050534
000200 1b 3e 36 3c bd 74 16 3b f4 04 e2 3a 18 64 46 3b
       0.011123206 0.0022957765 0.0017243908 0.0030272063
000210 4f b2 07 3c bf fc 99 3b e5 99 f7 3a 31 8b 9f bd
       0.008282258 0.004699319 0.0018890469 -0.077902205
000220 31 08 d1 bd 65 ec b9 bd 81 31 35 bb 26 9b 84 3c
       -0.102066405 -0.09078292 -0.0027647915 0.016187262
000230 de 4f 22 bc 33 f7 a1 3d e8 18 01 3e da 8e a4 3d
       -0.009906737 0.07908478 0.12607157 0.08035059
000240 64 f5 d3 bc 10 0e 25 bd a7 7a 06 bd 32 01 44 3a
       -0.025873847 -0.040296614 -0.032831814 0.0007476985
000250 a5 3d af b6 57 13 90 ba 46 3d df 3c 22 76 2b 3d
       -5.222583e-06 -0.0010992092 0.027250897 0.041860707
000260 7c 89 02 3d 96 61 32 bd ae b9 96 bd ce f3 17 be
       0.031869397 -0.043550096 -0.07359634 -0.14839098
000270 f3 ae 85 3c b0 de a8 3a af 41 fa bc 89 b1 96 3d
       0.016318774 0.0012883749 -0.030548899 0.07358081
000280 2e 2c b1 3d 67 cf c2 3d 10 9a 1a 3b 1b 87 0a b8
       0.08651005 0.09512215 0.0023590364 -3.302759e-05
000290 10 df a1 ba 85 4f 76 b9 1f 12 22 bb ed 54 0a bb
       -0.0012349803 -0.00023490012 -0.002473004 -0.0021107749
0002a0 41 86 41 bb 8c 81 8a bb 18 7a 83 bb 80 05 44 3c
       -0.0029529484 -0.004226869 -0.0040123574 0.011964202
0002b0 d8 12 78 3c 1b d9 10 3c 34 24 f5 3b 2e b8 a4 3c
       0.015141211 0.0088408245 0.0074811224 0.020107355
0002c0 18 86 d8 3b 22 3c c3 3c 78 56 09 3d 57 23 b1 3c
       0.006607782 0.023832384 0.03352973 0.021623297
0002d0 d3 86 21 bb 5e ff 0e ba 22 dd 09 bb 8f 25 80 b9
       -0.0024647012 -0.0005454923 -0.0021036346 -0.00024442046
0002e0 5e c4 45 3b e6 5c 07 bb 17 2e 3a 3c 41 76 60 3c
       0.0030176858 -0.0020654737 0.011363528 0.013700069
0002f0 2f bf e8 3b 76 7e ee 3c 84 47 bf 3c f5 34 15 3c
       0.007102869 0.029113036 0.023349531 0.009106864
000300 03 40 a0 3c 39 8d ae 3c 84 07 cd 3c 51 d7 97 3c
       0.019561773 0.021307575 0.025027998 0.018535288
000310 c3 f5 f5 3c 5a fa 49 3d 50 3f 0a 3c 7e 5c 55 3c
       0.030024415 0.04931102 0.008437946 0.01302254
000320 13 6e 1e 3c 64 62 89 3c 69 b5 aa 3c ef c6 36 3c
       0.009669798 0.01677055 0.020838456 0.011155828
000330 87 cd b7 3c e6 e9 c0 3c c4 3c 5d 3c 22 e8 86 bd
       0.02243687 0.023549031 0.013503257 -0.065872446
000340 8d 7d 49 bd c1 ce 86 bd a0 b6 70 bc c2 44 9e 3c
       -0.049192 -0.06582404 -0.014691979 0.019319896
000350 16 d9 56 bc 20 fd 8f 3d 9d 74 cb 3d 6a 9a 87 3d
       -0.013113281 0.07030702 0.099343516 0.06621249
000360 19 cb 82 be 63 b9 b5 be 61 62 87 be b5 ad 8d bc
       -0.25545576 -0.35493 -0.26442245 -0.017294744
000370 a3 88 81 3c 26 f5 96 bb bc dc 84 3e a8 26 ca 3e
       0.015812224 -0.0046068607 0.25949657 0.39482617
000380 f3 8e 82 3e a2 52 a8 bb 4f 7a 41 3b dc f6 14 bc
       0.25499687 -0.0051368037 0.0029522364 -0.009092059
000390 40 2a d2 3b 40 f1 e4 3c 6d a3 4d 3b f2 dd 24 3d
       0.006413728 0.027947068 0.0031377927 0.040250726
0003a0 2d 7c 69 3d e1 a6 ff 3c 31 8e f6 bd 53 7b 29 be
       0.05700319 0.031207504 -0.120388396 -0.1655095
0003b0 f8 46 f3 bd 9d 5e c0 bb 68 50 16 ba 9d c1 ac 39
       -0.118787706 -0.005870654 -0.00057340274 0.0003295065
0003c0 80 19 f9 3d a7 43 30 3e 55 a2 ea 3d 9a 91 06 be
       0.12163067 0.17213307 0.11456744 -0.1314148
0003d0 59 fd 92 bd 05 22 38 bd ab bf dd bc f6 9d 24 3c
       -0.071772285 -0.04495432 -0.027068933 0.010047426
0003e0 8b 44 36 3c ca d7 d4 3d a4 3a d5 3d 6c 9c 96 3d
       0.01112474 0.10392721 0.104115754 0.07354054
0003f0 81 81 d9 bc 5a 84 6f bc 12 a0 00 bd 91 24 02 bc
       -0.02655101 -0.014618957 -0.031402655 -0.007943288

trunk.4.conv.weight f4 [39, 39, 3, 3]
000000 16 d3 52 3d 76 e3 e1 3b 4f c5 d6 bc 12 b0 a3 3c
       0.05147084 0.0068935705 -0.026217131 0.019981418
000010 19 f6 ee ba 4e 81 3c 3b 2c cc d0 3c cf 54 24 3c
       -0.0018231302 0.0028763595 0.025487982 0.010029986
000020 fc d1 d9 3c 27 62 a5 3d 81 bb 30 bd ad ef 93 bd
       0.026589386 0.08075362 -0.043147568 -0.07223449
000030 b9 5b 8f 3e e2 da b9 bb bb d2 32 be 99 7c d8 3d
       0.27999666 -0.005671845 -0.174632 0.1057064
000040 a7 db 2d bc 72 a7 b8 bd 66 38 fa 3c 4d 6d e5 bb
       -0.010611451 -0.09016313 0.030544471 -0.007001555
000050 c3 88 0f bd e7 ba c8 3c 15 8e de 3c a2 d3 2e 3b
       -0.035042536 0.024503184 0.02716736 0.0026676436
000060 80 41 5f 3c 6e 54 53 bc 53 70 84 bc d5 c9 6e 3c
       0.013626456 -0.012898548 -0.016166842 0.014574488
000070 76 ce 95 bc 96 41 17 3c 67 c7 e0 3c 46 de 4a 3c
       -0.018286925 0.0092319455 0.027438832 0.012382096
000080 c0 a9 df 3c e0 00 9c 3b 82 8a 38 bc 7f 44 3f 3c
       0.027302623 0.0047608465 -0.011263492 0.011674046
000090 93 8a b9 bb 59 50 fa 3a 39 e8 3e bc 4f a7 13 bc
       -0.0056622713 0.0019097432 -0.011652046 -0.009012057
0000a0 ea 56 d6 3a d8 ad 4e bc e0 18 c0 bb ab 1c 50 3b
       0.0016352807 -0.01261469 -0.0058623403 0.0031755369
0000b0 04 70 dc bb 54 54 99 3d ea 9c f3 bc f8 6c 89 bd
       -0.0067272205 0.074867874 -0.029737908 -0.06710237
0000c0 75 93 2a 3e ee 3a 11 3c 8b 0c d2 bd f7 d6 6b 3d
       0.16657813 0.008864148 -0.10256299 0.057578053
0000d0 b7 54 1a bc 5f 2f 78 bd ff e0 49 3d 16 a4 6e bb
       -0.009419612 -0.06059205 0.04928684 -0.003641372
0000e0 12 05 5a bd 60 d7 cb 3d d1 17 d7 3c 52 ea 7b bd
       -0.05322749 0.09953189 0.026256474 -0.061502762
0000f0 13 08 2f 3d d7 2e b6 bc 4e 31 3f bd e0 60 0a 3d
       0.04273231 -0.022239132 -0.04667788 0.033783793
000100 a0 ec 89 3b 0f 82 a0 bc b6 f7 58 3c e6 e1 42 ba
       0.004209116 -0.019593267 0.013242653 -0.0007434174
000110 e3 dc 83 3a 01 42 82 3c d8 d4 b7 3b 7b 51 92 3c
       0.0010060336 0.015900614 0.0056100897 0.017861119
000120 fb d0 9d bc 09 35 61 3c 03 9c c8 bc f4 bc fb bc
       -0.019264689 0.013745555 -0.024488455 -0.030729748
000130 ce fe af 3b 66 c3 07 bd 65 c4 b2 bc 05 f8 4e 3c
       0.0053709513 -0.03314533 -0.021822164 0.012632375
000140 f7 2d 57 bc 10 75 09 3c 10 19 19 b9 c1 4a eb bb
       -0.0131335175 0.008389726 -0.00014600554 -0.007180542
000150 ef 64 fe 3a f0 32 5e ba da 0a 79 3a c8 e5 79 3b
       0.0019408743 -0.0008476218 0.0009500213 0.0038131345
000160 05 66 92 3a 99 9f a4 3b 9e c4 1a bc 21 1f da 3c
       0.001116932 0.0050239083 -0.009446291 0.026626172
000170 15 ae 48 bd 34 9b 51 bd a7 d9 93 bc 59 e7 80 bd
       -0.048994143 -0.051173404 -0.01804812 -0.06294126
000180 79 8c 5f bc d4 be 58 3c 58 ac cc bc a3 46 0f 3c
       -0.013644331 0.013229091 -0.024984524 0.008744868
000190 55 03 1d bc 4b d8 19 3b b2 d1 7b 3c fa 18 04 3c
       -0.009583314 0.0023474868 0.0153698195 0.0080625955
0001a0 04 d1 63 3c c5 49 7a 3a 3c 0f 07 bc 1a 36 92 3b
       0.013904814 0.00095477357 -0.008243378 0.004462016
0001b0 7c 1c 3a 3c ac 6e 82 3c 6d 3e f3 bc 50 8e 19 ba
       0.01135933 0.015921913 -0.029692853 -0.0005857693
0001c0 99 c5 4c bb a2 92 dd bc 60 10 8b 3c fb 36 89 ba
       -0.0031245707 -0.027047459 0.016975582 -0.0010468656
0001d0 74 fb 9c bc cd 05 0d bd 97 5e c1 3c 13 9f 8a bd
       -0.019162871 -0.03442936 0.023604674 -0.06768622
0001e0 41 85 86 bd 8e 8c a1 3c 28 00 97 bd e6 3d 1d bd
       -0.06568385 0.019720342 -0.07373077 -0.03838911
0001f0 c8 44 c6 3c ea b0 36 bd 5f 40 83 3c 7b a5 b8 bb
       0.02420272 -0.044602312 0.016021905 -0.005634961
000200 f4 78 81 bc b6 be 8e 3c 9f bd 0f 3c 5a b0 ea 3a
       -0.015804745 0.017424922 0.008773237 0.001790534
000210 22 7a 3a 3d 76 7a 11 3a 86 15 67 bd ba f3 a1 3d
       0.04552663 0.0005549559 -0.05641701 0.07907815
000220 33 a5 d2 3a 3d b9 79 bd c2 cb a8 3d d1 f1 fe 3b
       0.0016070962 -0.060967673 0.08241989 0.0077802916
000230 ea 28 65 bd 0f 03 74 3c 99 e1 38 bc 54 62 de bc
       -0.05594722 0.014893307 -0.011284255 -0.027146496
000240 e8 73 3a 3d 34 77 2b bb fa d5 14 bc 9c 72 b3 3c
       0.045520693 -0.002616358 -0.009084219 0.021905236
000250 0b 4f 45 3b 4a 86 a5 3c 02 34 38 3d 3b 87 7c bc
       0.0030106928 0.020205636 0.044971474 -0.015413101
000260 7a cd 88 bd 25 1b 42 3d 3a 3c af bc 6d f2 50 bd
       -0.066798165 0.04738917 -0.021391023 -0.051012445
000270 80 60 29 3e 57 6a 2e 3c 55 60 d0 bd fc 27 94 3d
       0.16540718 0.010645471 -0.10174624 0.07234189
000280 83 84 4e bc 76 e1 80 bd 85 5f a4 3b af b1 0b 3b
       -0.012604835 -0.06293003 0.0050162696 0.0021315624
000290 b9 c6 95 bc 20 94 a5 bb d9 0a cf b8 d1 29 ac bb
       -0.018283235 -0.0050530583 -9.87255e-05 -0.0052540083
0002a0 42 6f 41 3b 17 be 8e 3a 4a 3a f5 3a 50 76 9f 3c
       0.0029515778 0.0010890391 0.0018709388 0.019465595
0002b0 0e c9 0f 39 0c fe 9d bc 45 74 49 3d 73 77 57 3c
       0.00013712441 -0.019286178 0.04918315 0.0131510375
0002c0 5f b8 27 bc e1 68 d2 3c 64 46 14 bd 83 0a a4 bc
       -0.010236829 0.025684776 -0.036199942 -0.020024544
0002d0 04 00 33 bc ab c8 44 3c ac 85 de bc 9f 4d 46 bc
       -0.010925297 0.012010734 -0.02716335 -0.012103467
0002e0 60 34 aa bc 37 a4 68 bd f9 8c ac 3b 93 c7 a8 3c
       -0.020776927 -0.056797232 0.0052658287 0.020602977
0002f0 62 1f c9 bc 1f 44 dd 3d 43 be 08 bd 40 c7 de bd
       -0.024551097 0.10804009 -0.033384573 -0.10877848
000300 c2 50 ce 3e a7 de 9e b9 24 70 86 be dc 5b 31 3e
       0.40295988 -0.00030301997 -0.26257432 0.17320198
000310 50 1e d6 bc 48 c7 0d be ba 5e c3 3c 11 58 07 bd
       -0.026137501 -0.13845551 0.02384888 -0.03304297
000320 fd 23 70 bc 7c 83 19 3d fd b3 60 3c b9 ea ff 3c
       -0.014657018 0.03747891 0.013714788 0.031239854
000330 cb 6a 5c 3d b0 4a 3b bb 55 45 da bc 58 65 07 3c
       0.053812783 -0.0028578453 -0.026644388 0.008263908
000340 25 6f 75 bc de 43 10 bb 9b 3f 8e 3c 27 1a f7 3b
       -0.014980112 -0.0022013108 0.017364314 0.0075409594
000350 83 f5 53 3c 85 44 d4 38 da 48 54 bc f4 0e cf 3a
       0.0129369525 0.000101217105 -0.012956822 0.0015797303
000360 5c a4 85 3d 93 28 9e bd 1d 82 cd 3c 92 0d ff 3d
       0.0652549 -0.07722583 0.025086457 0.1245376
000370 47 7e 81 3d 74 0a dc 3d 7d db 8f 3c fe c9 65 bd
       0.063229136 0.10744181 0.017560715 -0.056100838
000380 e5 69 18 3d 2a 94 c9 3c c7 b0 30 3a 18 08 91 bd
       0.037210364 0.024606783 0.0006740209 -0.07081622
000390 ee 01 e7 bc 9a 84 18 3b 48 f9 84 bb cc 07 cd 3c
       -0.028199162 0.0023272396 -0.004058037 0.025028132
0003a0 24 1b c7 3b cc 42 c7 bb 9c b1 c0 bc 5b e6 84 3c
       0.0060762335 -0.006080961 -0.02352219 0.016223123
0003b0 25 65 03 bd 80 f0 1e bd 0c cc 49 bc c7 0b 77 bd
       -0.03207888 -0.038803577 -0.012316715 -0.060313966
0003c0 ed 7b c1 bc b3 25 8c 3c 8c b7 87 bc 39 8e e9 3b
       -0.023618663 0.01710782 -0.016567014 0.00712755
0003d0 59 a3 2d bc de e5 e7 bb 74 eb 53 3c 40 8f d2 3b
       -0.010598027 -0.007076963 0.012934554 0.006425768
0003e0 e2 01 ae 3b 17 13 af ba 86 f8 37 bc a1 ae 0f bb
       0.005310283 -0.001335713 -0.011228686 -0.0021924155
0003f0 eb ab 0a 3d df 3c d4 3b 14 a6 df bc b4 5f 89 3d
       0.03385536 0.006476983 -0.027300872 0.06707707
